<?xml version="1.0"?>
<net name="Model0" version="11">
	<layers>
		<layer id="3" name="input_ids" type="Parameter" version="opset1">
			<data shape="?,?" element_type="i64" />
			<output>
				<port id="0" precision="I64" names="input_ids">
					<dim>-1</dim>
					<dim>-1</dim>
				</port>
			</output>
		</layer>
		<layer id="2" name="attention_mask" type="Parameter" version="opset1">
			<data shape="?,?" element_type="i64" />
			<output>
				<port id="0" precision="I64" names="attention_mask">
					<dim>-1</dim>
					<dim>-1</dim>
				</port>
			</output>
		</layer>
		<layer id="1" name="position_ids" type="Parameter" version="opset1">
			<data shape="?,?" element_type="i64" />
			<output>
				<port id="0" precision="I64" names="position_ids">
					<dim>-1</dim>
					<dim>-1</dim>
				</port>
			</output>
		</layer>
		<layer id="0" name="beam_idx" type="Parameter" version="opset1">
			<data shape="?" element_type="i32" />
			<output>
				<port id="0" precision="I32" names="beam_idx">
					<dim>-1</dim>
				</port>
			</output>
		</layer>
		<layer id="4" name="Constant_97741" type="Const" version="opset1">
			<data element_type="f32" shape="" offset="0" size="4" />
			<output>
				<port id="0" precision="FP32" />
			</output>
		</layer>
		<layer id="5" name="ShapeOf_97727" type="ShapeOf" version="opset3">
			<data output_type="i64" />
			<input>
				<port id="0" precision="I64">
					<dim>-1</dim>
					<dim>-1</dim>
				</port>
			</input>
			<output>
				<port id="1" precision="I64">
					<dim>2</dim>
				</port>
			</output>
		</layer>
		<layer id="6" name="Constant_97729" type="Const" version="opset1">
			<data element_type="i64" shape="1" offset="4" size="8" />
			<output>
				<port id="0" precision="I64">
					<dim>1</dim>
				</port>
			</output>
		</layer>
		<layer id="7" name="Constant_97731" type="Const" version="opset1">
			<data element_type="i64" shape="" offset="4" size="8" />
			<output>
				<port id="0" precision="I64" />
			</output>
		</layer>
		<layer id="8" name="Gather_97732" type="Gather" version="opset8">
			<data batch_dims="0" />
			<input>
				<port id="0" precision="I64">
					<dim>2</dim>
				</port>
				<port id="1" precision="I64">
					<dim>1</dim>
				</port>
				<port id="2" precision="I64" />
			</input>
			<output>
				<port id="3" precision="I64">
					<dim>1</dim>
				</port>
			</output>
		</layer>
		<layer id="9" name="Constant_97734" type="Const" version="opset1">
			<data element_type="i64" shape="1" offset="12" size="8" />
			<output>
				<port id="0" precision="I64">
					<dim>1</dim>
				</port>
			</output>
		</layer>
		<layer id="10" name="Constant_97736" type="Const" version="opset1">
			<data element_type="i64" shape="1" offset="4" size="8" />
			<output>
				<port id="0" precision="I64">
					<dim>1</dim>
				</port>
			</output>
		</layer>
		<layer id="11" name="Constant_97738" type="Const" version="opset1">
			<data element_type="i64" shape="1" offset="20" size="8" />
			<output>
				<port id="0" precision="I64">
					<dim>1</dim>
				</port>
			</output>
		</layer>
		<layer id="12" name="Concat_97739" type="Concat" version="opset1">
			<data axis="0" />
			<input>
				<port id="0" precision="I64">
					<dim>1</dim>
				</port>
				<port id="1" precision="I64">
					<dim>1</dim>
				</port>
				<port id="2" precision="I64">
					<dim>1</dim>
				</port>
				<port id="3" precision="I64">
					<dim>1</dim>
				</port>
			</input>
			<output>
				<port id="4" precision="I64">
					<dim>4</dim>
				</port>
			</output>
		</layer>
		<layer id="13" name="Broadcast_97742" type="Broadcast" version="opset3">
			<data mode="numpy" />
			<input>
				<port id="0" precision="FP32" />
				<port id="1" precision="I64">
					<dim>4</dim>
				</port>
			</input>
			<output>
				<port id="2" precision="FP32">
					<dim>-1</dim>
					<dim>32</dim>
					<dim>0</dim>
					<dim>96</dim>
				</port>
			</output>
		</layer>
		<layer id="14" name="ReadValue_96722" type="ReadValue" version="opset6">
			<data variable_id="past_key_values.9.valuepresent.9.value" variable_type="f32" variable_shape="?,32,?,96" />
			<input>
				<port id="0" precision="FP32">
					<dim>-1</dim>
					<dim>32</dim>
					<dim>0</dim>
					<dim>96</dim>
				</port>
			</input>
			<output>
				<port id="1" precision="FP32" names="past_key_values.9.value">
					<dim>-1</dim>
					<dim>32</dim>
					<dim>-1</dim>
					<dim>96</dim>
				</port>
			</output>
		</layer>
		<layer id="15" name="Constant_95459" type="Const" version="opset1">
			<data element_type="i64" shape="" offset="4" size="8" />
			<output>
				<port id="0" precision="I64" />
			</output>
		</layer>
		<layer id="16" name="Gather_95460" type="Gather" version="opset8">
			<data batch_dims="0" />
			<input>
				<port id="0" precision="FP32">
					<dim>-1</dim>
					<dim>32</dim>
					<dim>-1</dim>
					<dim>96</dim>
				</port>
				<port id="1" precision="I32">
					<dim>-1</dim>
				</port>
				<port id="2" precision="I64" />
			</input>
			<output>
				<port id="3" precision="FP32">
					<dim>-1</dim>
					<dim>32</dim>
					<dim>-1</dim>
					<dim>96</dim>
				</port>
			</output>
		</layer>
		<layer id="17" name="Constant_85683" type="Const" version="opset1">
			<data element_type="f32" shape="1, 1, 3072" offset="28" size="12288" />
			<output>
				<port id="0" precision="FP32">
					<dim>1</dim>
					<dim>1</dim>
					<dim>3072</dim>
				</port>
			</output>
		</layer>
		<layer id="18" name="self.model.embed_tokens.weight" type="Const" version="opset1">
			<data element_type="u8" shape="32064, 3072" offset="12316" size="98500608" />
			<output>
				<port id="0" precision="U8">
					<dim>32064</dim>
					<dim>3072</dim>
				</port>
			</output>
		</layer>
		<layer id="19" name="Convert_114593" type="Convert" version="opset1">
			<data destination_type="f16" />
			<input>
				<port id="0" precision="U8">
					<dim>32064</dim>
					<dim>3072</dim>
				</port>
			</input>
			<output>
				<port id="1" precision="FP16">
					<dim>32064</dim>
					<dim>3072</dim>
				</port>
			</output>
		</layer>
		<layer id="20" name="self.model.embed_tokens.weight/zero_point" type="Const" version="opset1">
			<data element_type="u8" shape="32064, 1" offset="98512924" size="32064" />
			<output>
				<port id="0" precision="U8">
					<dim>32064</dim>
					<dim>1</dim>
				</port>
			</output>
		</layer>
		<layer id="21" name="Convert_114596" type="Convert" version="opset1">
			<data destination_type="f16" />
			<input>
				<port id="0" precision="U8">
					<dim>32064</dim>
					<dim>1</dim>
				</port>
			</input>
			<output>
				<port id="1" precision="FP16">
					<dim>32064</dim>
					<dim>1</dim>
				</port>
			</output>
		</layer>
		<layer id="22" name="self.model.embed_tokens.weight/zero_point/subtract" type="Subtract" version="opset1">
			<data auto_broadcast="numpy" />
			<input>
				<port id="0" precision="FP16">
					<dim>32064</dim>
					<dim>3072</dim>
				</port>
				<port id="1" precision="FP16">
					<dim>32064</dim>
					<dim>1</dim>
				</port>
			</input>
			<output>
				<port id="2" precision="FP16">
					<dim>32064</dim>
					<dim>3072</dim>
				</port>
			</output>
		</layer>
		<layer id="23" name="self.model.embed_tokens.weight/scale" type="Const" version="opset1">
			<data element_type="f16" shape="32064, 1" offset="98544988" size="64128" />
			<output>
				<port id="0" precision="FP16">
					<dim>32064</dim>
					<dim>1</dim>
				</port>
			</output>
		</layer>
		<layer id="24" name="self.model.embed_tokens.weight/fq_weights_0" type="Multiply" version="opset1">
			<data auto_broadcast="numpy" />
			<input>
				<port id="0" precision="FP16">
					<dim>32064</dim>
					<dim>3072</dim>
				</port>
				<port id="1" precision="FP16">
					<dim>32064</dim>
					<dim>1</dim>
				</port>
			</input>
			<output>
				<port id="2" precision="FP16">
					<dim>32064</dim>
					<dim>3072</dim>
				</port>
			</output>
		</layer>
		<layer id="25" name="__module.model.embed_tokens/ov_ext::embedding/Convert" type="Convert" version="opset1">
			<data destination_type="f32" />
			<rt_info>
				<attribute name="decompression" version="0" />
			</rt_info>
			<input>
				<port id="0" precision="FP16">
					<dim>32064</dim>
					<dim>3072</dim>
				</port>
			</input>
			<output>
				<port id="1" precision="FP32">
					<dim>32064</dim>
					<dim>3072</dim>
				</port>
			</output>
		</layer>
		<layer id="26" name="__module.model.embed_tokens/ov_ext::embedding/Convert_1" type="Convert" version="opset1">
			<data destination_type="i32" />
			<input>
				<port id="0" precision="I64">
					<dim>-1</dim>
					<dim>-1</dim>
				</port>
			</input>
			<output>
				<port id="1" precision="I32">
					<dim>-1</dim>
					<dim>-1</dim>
				</port>
			</output>
		</layer>
		<layer id="27" name="__module.model.embed_tokens/ov_ext::embedding/Constant" type="Const" version="opset1">
			<data element_type="i32" shape="" offset="0" size="4" />
			<output>
				<port id="0" precision="I32" />
			</output>
		</layer>
		<layer id="28" name="__module.model.embed_tokens/ov_ext::embedding/Gather" type="Gather" version="opset8">
			<data batch_dims="0" />
			<input>
				<port id="0" precision="FP32">
					<dim>32064</dim>
					<dim>3072</dim>
				</port>
				<port id="1" precision="I32">
					<dim>-1</dim>
					<dim>-1</dim>
				</port>
				<port id="2" precision="I32" />
			</input>
			<output>
				<port id="3" precision="FP32" names="317,373,384,hidden_states.1,hidden_states.3">
					<dim>-1</dim>
					<dim>-1</dim>
					<dim>3072</dim>
				</port>
			</output>
		</layer>
		<layer id="29" name="Constant_85587" type="Const" version="opset1">
			<data element_type="f32" shape="1, 1, 3072" offset="98609116" size="12288" />
			<output>
				<port id="0" precision="FP32">
					<dim>1</dim>
					<dim>1</dim>
					<dim>3072</dim>
				</port>
			</output>
		</layer>
		<layer id="30" name="Constant_85586" type="Const" version="opset1">
			<data element_type="f32" shape="1, 1, 1" offset="98621404" size="4" />
			<output>
				<port id="0" precision="FP32">
					<dim>1</dim>
					<dim>1</dim>
					<dim>1</dim>
				</port>
			</output>
		</layer>
		<layer id="31" name="Constant_85584" type="Const" version="opset1">
			<data element_type="f32" shape="1, 1, 1" offset="98621408" size="4" />
			<output>
				<port id="0" precision="FP32">
					<dim>1</dim>
					<dim>1</dim>
					<dim>1</dim>
				</port>
			</output>
		</layer>
		<layer id="32" name="__module.model.layers.0.input_layernorm/aten::pow/Power" type="Power" version="opset1">
			<data auto_broadcast="numpy" />
			<input>
				<port id="0" precision="FP32">
					<dim>-1</dim>
					<dim>-1</dim>
					<dim>3072</dim>
				</port>
				<port id="1" precision="FP32">
					<dim>1</dim>
					<dim>1</dim>
					<dim>1</dim>
				</port>
			</input>
			<output>
				<port id="2" precision="FP32" names="374">
					<dim>-1</dim>
					<dim>-1</dim>
					<dim>3072</dim>
				</port>
			</output>
		</layer>
		<layer id="33" name="Constant_413" type="Const" version="opset1">
			<data element_type="i64" shape="1" offset="98621412" size="8" />
			<output>
				<port id="0" precision="I64" names="375">
					<dim>1</dim>
				</port>
			</output>
		</layer>
		<layer id="34" name="__module.model.layers.0.input_layernorm/aten::mean/ReduceMean" type="ReduceMean" version="opset1">
			<data keep_dims="true" />
			<input>
				<port id="0" precision="FP32">
					<dim>-1</dim>
					<dim>-1</dim>
					<dim>3072</dim>
				</port>
				<port id="1" precision="I64">
					<dim>1</dim>
				</port>
			</input>
			<output>
				<port id="2" precision="FP32" names="376,variance.1">
					<dim>-1</dim>
					<dim>-1</dim>
					<dim>1</dim>
				</port>
			</output>
		</layer>
		<layer id="35" name="Constant_85585" type="Const" version="opset1">
			<data element_type="f32" shape="1, 1, 1" offset="98621420" size="4" />
			<output>
				<port id="0" precision="FP32">
					<dim>1</dim>
					<dim>1</dim>
					<dim>1</dim>
				</port>
			</output>
		</layer>
		<layer id="36" name="__module.model.layers.0.input_layernorm/aten::add/Add" type="Add" version="opset1">
			<data auto_broadcast="numpy" />
			<input>
				<port id="0" precision="FP32">
					<dim>-1</dim>
					<dim>-1</dim>
					<dim>1</dim>
				</port>
				<port id="1" precision="FP32">
					<dim>1</dim>
					<dim>1</dim>
					<dim>1</dim>
				</port>
			</input>
			<output>
				<port id="2" precision="FP32" names="377">
					<dim>-1</dim>
					<dim>-1</dim>
					<dim>1</dim>
				</port>
			</output>
		</layer>
		<layer id="37" name="__module.model.layers.0.input_layernorm/aten::rsqrt/Sqrt" type="Sqrt" version="opset1">
			<input>
				<port id="0" precision="FP32">
					<dim>-1</dim>
					<dim>-1</dim>
					<dim>1</dim>
				</port>
			</input>
			<output>
				<port id="1" precision="FP32">
					<dim>-1</dim>
					<dim>-1</dim>
					<dim>1</dim>
				</port>
			</output>
		</layer>
		<layer id="38" name="__module.model.layers.0.input_layernorm/aten::rsqrt/Divide" type="Divide" version="opset1">
			<data auto_broadcast="numpy" m_pythondiv="true" />
			<input>
				<port id="0" precision="FP32">
					<dim>1</dim>
					<dim>1</dim>
					<dim>1</dim>
				</port>
				<port id="1" precision="FP32">
					<dim>-1</dim>
					<dim>-1</dim>
					<dim>1</dim>
				</port>
			</input>
			<output>
				<port id="2" precision="FP32" names="378">
					<dim>-1</dim>
					<dim>-1</dim>
					<dim>1</dim>
				</port>
			</output>
		</layer>
		<layer id="39" name="__module.model.layers.0.input_layernorm/aten::mul/Multiply" type="Multiply" version="opset1">
			<data auto_broadcast="numpy" />
			<input>
				<port id="0" precision="FP32">
					<dim>-1</dim>
					<dim>-1</dim>
					<dim>3072</dim>
				</port>
				<port id="1" precision="FP32">
					<dim>-1</dim>
					<dim>-1</dim>
					<dim>1</dim>
				</port>
			</input>
			<output>
				<port id="2" precision="FP32" names="379,380,hidden_states.5,hidden_states.7">
					<dim>-1</dim>
					<dim>-1</dim>
					<dim>3072</dim>
				</port>
			</output>
		</layer>
		<layer id="40" name="__module.model.layers.0.input_layernorm/aten::mul/Multiply_1" type="Multiply" version="opset1">
			<data auto_broadcast="numpy" />
			<input>
				<port id="0" precision="FP32">
					<dim>1</dim>
					<dim>1</dim>
					<dim>3072</dim>
				</port>
				<port id="1" precision="FP32">
					<dim>-1</dim>
					<dim>-1</dim>
					<dim>3072</dim>
				</port>
			</input>
			<output>
				<port id="2" precision="FP32" names="381,383,hidden_states.9">
					<dim>-1</dim>
					<dim>-1</dim>
					<dim>3072</dim>
				</port>
			</output>
		</layer>
		<layer id="41" name="self.model.layers.0.self_attn.qkv_proj.weight" type="Const" version="opset1">
			<data element_type="u4" shape="9216, 24, 128" offset="98621424" size="14155776" />
			<output>
				<port id="0" precision="U4">
					<dim>9216</dim>
					<dim>24</dim>
					<dim>128</dim>
				</port>
			</output>
		</layer>
		<layer id="42" name="Convert_114932" type="Convert" version="opset1">
			<data destination_type="f16" />
			<input>
				<port id="0" precision="U4">
					<dim>9216</dim>
					<dim>24</dim>
					<dim>128</dim>
				</port>
			</input>
			<output>
				<port id="1" precision="FP16">
					<dim>9216</dim>
					<dim>24</dim>
					<dim>128</dim>
				</port>
			</output>
		</layer>
		<layer id="43" name="self.model.layers.0.self_attn.qkv_proj.weight/zero_point" type="Const" version="opset1">
			<data element_type="u4" shape="9216, 24, 1" offset="112777200" size="110592" />
			<output>
				<port id="0" precision="U4">
					<dim>9216</dim>
					<dim>24</dim>
					<dim>1</dim>
				</port>
			</output>
		</layer>
		<layer id="44" name="Convert_114934" type="Convert" version="opset1">
			<data destination_type="f16" />
			<input>
				<port id="0" precision="U4">
					<dim>9216</dim>
					<dim>24</dim>
					<dim>1</dim>
				</port>
			</input>
			<output>
				<port id="1" precision="FP16">
					<dim>9216</dim>
					<dim>24</dim>
					<dim>1</dim>
				</port>
			</output>
		</layer>
		<layer id="45" name="self.model.layers.0.self_attn.qkv_proj.weight/zero_point/subtract" type="Subtract" version="opset1">
			<data auto_broadcast="numpy" />
			<input>
				<port id="0" precision="FP16">
					<dim>9216</dim>
					<dim>24</dim>
					<dim>128</dim>
				</port>
				<port id="1" precision="FP16">
					<dim>9216</dim>
					<dim>24</dim>
					<dim>1</dim>
				</port>
			</input>
			<output>
				<port id="2" precision="FP16">
					<dim>9216</dim>
					<dim>24</dim>
					<dim>128</dim>
				</port>
			</output>
		</layer>
		<layer id="46" name="self.model.layers.0.self_attn.qkv_proj.weight/scale" type="Const" version="opset1">
			<data element_type="f16" shape="9216, 24, 1" offset="112887792" size="442368" />
			<output>
				<port id="0" precision="FP16">
					<dim>9216</dim>
					<dim>24</dim>
					<dim>1</dim>
				</port>
			</output>
		</layer>
		<layer id="47" name="self.model.layers.0.self_attn.qkv_proj.weight/fq_weights_1" type="Multiply" version="opset1">
			<data auto_broadcast="numpy" />
			<input>
				<port id="0" precision="FP16">
					<dim>9216</dim>
					<dim>24</dim>
					<dim>128</dim>
				</port>
				<port id="1" precision="FP16">
					<dim>9216</dim>
					<dim>24</dim>
					<dim>1</dim>
				</port>
			</input>
			<output>
				<port id="2" precision="FP16">
					<dim>9216</dim>
					<dim>24</dim>
					<dim>128</dim>
				</port>
			</output>
		</layer>
		<layer id="48" name="Constant_114939" type="Const" version="opset1">
			<data element_type="i64" shape="2" offset="113330160" size="16" />
			<output>
				<port id="0" precision="I64">
					<dim>2</dim>
				</port>
			</output>
		</layer>
		<layer id="49" name="Reshape_114940" type="Reshape" version="opset1">
			<data special_zero="false" />
			<input>
				<port id="0" precision="FP16">
					<dim>9216</dim>
					<dim>24</dim>
					<dim>128</dim>
				</port>
				<port id="1" precision="I64">
					<dim>2</dim>
				</port>
			</input>
			<output>
				<port id="2" precision="FP16">
					<dim>9216</dim>
					<dim>3072</dim>
				</port>
			</output>
		</layer>
		<layer id="50" name="__module.model.layers.0.self_attn.qkv_proj/ov_ext::linear/ConvertLike" type="Convert" version="opset1">
			<data destination_type="f32" />
			<rt_info>
				<attribute name="decompression" version="0" />
			</rt_info>
			<input>
				<port id="0" precision="FP16">
					<dim>9216</dim>
					<dim>3072</dim>
				</port>
			</input>
			<output>
				<port id="1" precision="FP32">
					<dim>9216</dim>
					<dim>3072</dim>
				</port>
			</output>
		</layer>
		<layer id="51" name="__module.model.layers.0.self_attn.qkv_proj/ov_ext::linear/MatMul" type="MatMul" version="opset1">
			<data transpose_a="false" transpose_b="true" />
			<input>
				<port id="0" precision="FP32">
					<dim>-1</dim>
					<dim>-1</dim>
					<dim>3072</dim>
				</port>
				<port id="1" precision="FP32">
					<dim>9216</dim>
					<dim>3072</dim>
				</port>
			</input>
			<output>
				<port id="2" precision="FP32" names="390,qkv.1">
					<dim>-1</dim>
					<dim>-1</dim>
					<dim>9216</dim>
				</port>
			</output>
		</layer>
		<layer id="52" name="Constant_457" type="Const" version="opset1">
			<data element_type="i64" shape="1" offset="4" size="8" />
			<output>
				<port id="0" precision="I64">
					<dim>1</dim>
				</port>
			</output>
		</layer>
		<layer id="53" name="Constant_459" type="Const" version="opset1">
			<data element_type="i64" shape="1" offset="113330176" size="8" />
			<output>
				<port id="0" precision="I64">
					<dim>1</dim>
				</port>
			</output>
		</layer>
		<layer id="54" name="Constant_461" type="Const" version="opset1">
			<data element_type="i64" shape="1" offset="113330184" size="8" />
			<output>
				<port id="0" precision="I64">
					<dim>1</dim>
				</port>
			</output>
		</layer>
		<layer id="55" name="__module.model.layers.0.self_attn/aten::slice/Reshape" type="Const" version="opset1">
			<data element_type="i64" shape="1" offset="113330192" size="8" />
			<output>
				<port id="0" precision="I64">
					<dim>1</dim>
				</port>
			</output>
		</layer>
		<layer id="56" name="__module.model.layers.0.self_attn/aten::slice/Slice" type="Slice" version="opset8">
			<input>
				<port id="0" precision="FP32">
					<dim>-1</dim>
					<dim>-1</dim>
					<dim>9216</dim>
				</port>
				<port id="1" precision="I64">
					<dim>1</dim>
				</port>
				<port id="2" precision="I64">
					<dim>1</dim>
				</port>
				<port id="3" precision="I64">
					<dim>1</dim>
				</port>
				<port id="4" precision="I64">
					<dim>1</dim>
				</port>
			</input>
			<output>
				<port id="5" precision="FP32" names="391,query_states.1">
					<dim>-1</dim>
					<dim>-1</dim>
					<dim>3072</dim>
				</port>
			</output>
		</layer>
		<layer id="57" name="Constant_92143" type="Const" version="opset1">
			<data element_type="i64" shape="4" offset="113330200" size="32" />
			<output>
				<port id="0" precision="I64">
					<dim>4</dim>
				</port>
			</output>
		</layer>
		<layer id="58" name="__module.model.layers.0.self_attn/aten::view/Reshape" type="Reshape" version="opset1">
			<data special_zero="true" />
			<input>
				<port id="0" precision="FP32">
					<dim>-1</dim>
					<dim>-1</dim>
					<dim>3072</dim>
				</port>
				<port id="1" precision="I64">
					<dim>4</dim>
				</port>
			</input>
			<output>
				<port id="2" precision="FP32" names="395">
					<dim>-1</dim>
					<dim>-1</dim>
					<dim>32</dim>
					<dim>96</dim>
				</port>
			</output>
		</layer>
		<layer id="59" name="__module.model.layers.0.self_attn/aten::transpose/Constant" type="Const" version="opset1">
			<data element_type="i32" shape="4" offset="113330232" size="16" />
			<output>
				<port id="0" precision="I32">
					<dim>4</dim>
				</port>
			</output>
		</layer>
		<layer id="60" name="__module.model.layers.0.self_attn/aten::transpose/Transpose" type="Transpose" version="opset1">
			<input>
				<port id="0" precision="FP32">
					<dim>-1</dim>
					<dim>-1</dim>
					<dim>32</dim>
					<dim>96</dim>
				</port>
				<port id="1" precision="I32">
					<dim>4</dim>
				</port>
			</input>
			<output>
				<port id="2" precision="FP32" names="396,q.1">
					<dim>-1</dim>
					<dim>32</dim>
					<dim>-1</dim>
					<dim>96</dim>
				</port>
			</output>
		</layer>
		<layer id="61" name="__module.model.layers.0.self_attn.rotary_emb/aten::unsqueeze/Unsqueeze_1" type="Const" version="opset1">
			<data element_type="f32" shape="1, 48, 1" offset="113330248" size="192" />
			<output>
				<port id="0" precision="FP32" names="419,420">
					<dim>1</dim>
					<dim>48</dim>
					<dim>1</dim>
				</port>
			</output>
		</layer>
		<layer id="62" name="ShapeOf_89433" type="ShapeOf" version="opset3">
			<data output_type="i64" />
			<input>
				<port id="0" precision="I64">
					<dim>-1</dim>
					<dim>-1</dim>
				</port>
			</input>
			<output>
				<port id="1" precision="I64">
					<dim>2</dim>
				</port>
			</output>
		</layer>
		<layer id="63" name="Constant_89434" type="Const" version="opset1">
			<data element_type="i64" shape="1" offset="4" size="8" />
			<output>
				<port id="0" precision="I64">
					<dim>1</dim>
				</port>
			</output>
		</layer>
		<layer id="64" name="Constant_89435" type="Const" version="opset1">
			<data element_type="i64" shape="" offset="4" size="8" />
			<output>
				<port id="0" precision="I64" />
			</output>
		</layer>
		<layer id="65" name="Gather_89436" type="Gather" version="opset8">
			<data batch_dims="0" />
			<input>
				<port id="0" precision="I64">
					<dim>2</dim>
				</port>
				<port id="1" precision="I64">
					<dim>1</dim>
				</port>
				<port id="2" precision="I64" />
			</input>
			<output>
				<port id="3" precision="I64" names="1068,1229,1390,1551,1712,1873,2034,2195,2356,2517,2678,2839,3000,3161,319,3322,3483,353,3644,3805,3966,4127,421,4288,4449,4610,4771,4932,5093,5254,5415,585,746,907">
					<dim>1</dim>
				</port>
			</output>
		</layer>
		<layer id="66" name="Constant_75602" type="Const" version="opset1">
			<data element_type="i64" shape="1" offset="113330184" size="8" />
			<output>
				<port id="0" precision="I64">
					<dim>1</dim>
				</port>
			</output>
		</layer>
		<layer id="67" name="Constant_75604" type="Const" version="opset1">
			<data element_type="i64" shape="1" offset="113330184" size="8" />
			<output>
				<port id="0" precision="I64">
					<dim>1</dim>
				</port>
			</output>
		</layer>
		<layer id="68" name="__module.model.layers.0.self_attn.rotary_emb/prim::ListConstruct" type="Concat" version="opset1">
			<data axis="0" />
			<input>
				<port id="0" precision="I64">
					<dim>1</dim>
				</port>
				<port id="1" precision="I64">
					<dim>1</dim>
				</port>
				<port id="2" precision="I64">
					<dim>1</dim>
				</port>
			</input>
			<output>
				<port id="3" precision="I64">
					<dim>3</dim>
				</port>
			</output>
		</layer>
		<layer id="69" name="__module.model.layers.0.self_attn.rotary_emb/aten::expand/Broadcast" type="Broadcast" version="opset3">
			<data mode="bidirectional" />
			<input>
				<port id="0" precision="FP32">
					<dim>1</dim>
					<dim>48</dim>
					<dim>1</dim>
				</port>
				<port id="1" precision="I64">
					<dim>3</dim>
				</port>
			</input>
			<output>
				<port id="2" precision="FP32" names="1070,1075,1231,1236,1392,1397,1553,1558,1714,1719,1875,1880,2036,2041,2197,2202,2358,2363,2519,2524,2680,2685,2841,2846,3002,3007,3163,3168,3324,3329,3485,3490,3646,3651,3807,3812,3968,3973,4129,4134,423,428,4290,4295,4451,4456,4612,4617,4773,4778,4934,4939,5095,5100,5256,5261,5417,5422,587,592,748,753,909,914,inv_freq_expanded,inv_freq_expanded.1,inv_freq_expanded.101,inv_freq_expanded.103,inv_freq_expanded.105,inv_freq_expanded.107,inv_freq_expanded.109,inv_freq_expanded.11,inv_freq_expanded.111,inv_freq_expanded.113,inv_freq_expanded.115,inv_freq_expanded.117,inv_freq_expanded.119,inv_freq_expanded.121,inv_freq_expanded.123,inv_freq_expanded.125,inv_freq_expanded.13,inv_freq_expanded.15,inv_freq_expanded.17,inv_freq_expanded.19,inv_freq_expanded.21,inv_freq_expanded.23,inv_freq_expanded.25,inv_freq_expanded.27,inv_freq_expanded.29,inv_freq_expanded.3,inv_freq_expanded.31,inv_freq_expanded.33,inv_freq_expanded.35,inv_freq_expanded.37,inv_freq_expanded.39,inv_freq_expanded.41,inv_freq_expanded.43,inv_freq_expanded.45,inv_freq_expanded.47,inv_freq_expanded.49,inv_freq_expanded.5,inv_freq_expanded.51,inv_freq_expanded.53,inv_freq_expanded.55,inv_freq_expanded.57,inv_freq_expanded.59,inv_freq_expanded.61,inv_freq_expanded.63,inv_freq_expanded.65,inv_freq_expanded.67,inv_freq_expanded.69,inv_freq_expanded.7,inv_freq_expanded.71,inv_freq_expanded.73,inv_freq_expanded.75,inv_freq_expanded.77,inv_freq_expanded.79,inv_freq_expanded.81,inv_freq_expanded.83,inv_freq_expanded.85,inv_freq_expanded.87,inv_freq_expanded.89,inv_freq_expanded.9,inv_freq_expanded.91,inv_freq_expanded.93,inv_freq_expanded.95,inv_freq_expanded.97,inv_freq_expanded.99">
					<dim>-1</dim>
					<dim>48</dim>
					<dim>1</dim>
				</port>
			</output>
		</layer>
		<layer id="70" name="Constant_92144" type="Const" version="opset1">
			<data element_type="i64" shape="2" offset="113330440" size="16" />
			<output>
				<port id="0" precision="I64">
					<dim>2</dim>
				</port>
			</output>
		</layer>
		<layer id="71" name="__module.model/aten::view/Reshape" type="Reshape" version="opset1">
			<data special_zero="true" />
			<input>
				<port id="0" precision="I64">
					<dim>-1</dim>
					<dim>-1</dim>
				</port>
				<port id="1" precision="I64">
					<dim>2</dim>
				</port>
			</input>
			<output>
				<port id="2" precision="I64" names="1071,1232,1393,1554,1715,1876,2037,2198,2359,2520,2681,2842,3003,314,315,3164,3325,3486,3647,3808,3969,4130,424,4291,4452,4613,4774,4935,5096,5257,5418,588,749,910,position_ids">
					<dim>-1</dim>
					<dim>-1</dim>
				</port>
			</output>
		</layer>
		<layer id="72" name="239" type="Const" version="opset1">
			<data element_type="i64" shape="" offset="113330184" size="8" />
			<output>
				<port id="0" precision="I64" names="239" />
			</output>
		</layer>
		<layer id="73" name="__module.model.layers.0.self_attn.rotary_emb/aten::unsqueeze/Unsqueeze_2" type="Unsqueeze" version="opset1">
			<input>
				<port id="0" precision="I64">
					<dim>-1</dim>
					<dim>-1</dim>
				</port>
				<port id="1" precision="I64" />
			</input>
			<output>
				<port id="2" precision="I64" names="1072,1073,1233,1234,1394,1395,1555,1556,1716,1717,1877,1878,2038,2039,2199,2200,2360,2361,2521,2522,2682,2683,2843,2844,3004,3005,3165,3166,3326,3327,3487,3488,3648,3649,3809,3810,3970,3971,4131,4132,425,426,4292,4293,4453,4454,4614,4615,4775,4776,4936,4937,5097,5098,5258,5259,5419,5420,589,590,750,751,911,912">
					<dim>-1</dim>
					<dim>1</dim>
					<dim>-1</dim>
				</port>
			</output>
		</layer>
		<layer id="74" name="__module.model.layers.0.self_attn.rotary_emb/aten::to/Convert_4" type="Convert" version="opset1">
			<data destination_type="f32" />
			<input>
				<port id="0" precision="I64">
					<dim>-1</dim>
					<dim>1</dim>
					<dim>-1</dim>
				</port>
			</input>
			<output>
				<port id="1" precision="FP32" names="1074,1076,1235,1237,1396,1398,1557,1559,1718,1720,1879,1881,2040,2042,2201,2203,2362,2364,2523,2525,2684,2686,2845,2847,3006,3008,3167,3169,3328,3330,3489,3491,3650,3652,3811,3813,3972,3974,4133,4135,427,429,4294,4296,4455,4457,4616,4618,4777,4779,4938,4940,5099,5101,5260,5262,5421,5423,591,593,752,754,913,915,position_ids_expanded,position_ids_expanded.1,position_ids_expanded.101,position_ids_expanded.103,position_ids_expanded.105,position_ids_expanded.107,position_ids_expanded.109,position_ids_expanded.11,position_ids_expanded.111,position_ids_expanded.113,position_ids_expanded.115,position_ids_expanded.117,position_ids_expanded.119,position_ids_expanded.121,position_ids_expanded.123,position_ids_expanded.125,position_ids_expanded.13,position_ids_expanded.15,position_ids_expanded.17,position_ids_expanded.19,position_ids_expanded.21,position_ids_expanded.23,position_ids_expanded.25,position_ids_expanded.27,position_ids_expanded.29,position_ids_expanded.3,position_ids_expanded.31,position_ids_expanded.33,position_ids_expanded.35,position_ids_expanded.37,position_ids_expanded.39,position_ids_expanded.41,position_ids_expanded.43,position_ids_expanded.45,position_ids_expanded.47,position_ids_expanded.49,position_ids_expanded.5,position_ids_expanded.51,position_ids_expanded.53,position_ids_expanded.55,position_ids_expanded.57,position_ids_expanded.59,position_ids_expanded.61,position_ids_expanded.63,position_ids_expanded.65,position_ids_expanded.67,position_ids_expanded.69,position_ids_expanded.7,position_ids_expanded.71,position_ids_expanded.73,position_ids_expanded.75,position_ids_expanded.77,position_ids_expanded.79,position_ids_expanded.81,position_ids_expanded.83,position_ids_expanded.85,position_ids_expanded.87,position_ids_expanded.89,position_ids_expanded.9,position_ids_expanded.91,position_ids_expanded.93,position_ids_expanded.95,position_ids_expanded.97,position_ids_expanded.99">
					<dim>-1</dim>
					<dim>1</dim>
					<dim>-1</dim>
				</port>
			</output>
		</layer>
		<layer id="75" name="__module.model.layers.0.self_attn.rotary_emb/aten::matmul/MatMul" type="MatMul" version="opset1">
			<data transpose_a="false" transpose_b="false" />
			<input>
				<port id="0" precision="FP32">
					<dim>-1</dim>
					<dim>48</dim>
					<dim>1</dim>
				</port>
				<port id="1" precision="FP32">
					<dim>-1</dim>
					<dim>1</dim>
					<dim>-1</dim>
				</port>
			</input>
			<output>
				<port id="2" precision="FP32" names="1077,1238,1399,1560,1721,1882,2043,2204,2365,2526,2687,2848,3009,3170,3331,3492,3653,3814,3975,4136,4297,430,4458,4619,4780,4941,5102,5263,5424,594,755,916">
					<dim>-1</dim>
					<dim>48</dim>
					<dim>-1</dim>
				</port>
			</output>
		</layer>
		<layer id="76" name="__module.model.layers.0.self_attn.rotary_emb/aten::transpose/Constant" type="Const" version="opset1">
			<data element_type="i32" shape="3" offset="113330456" size="12" />
			<output>
				<port id="0" precision="I32">
					<dim>3</dim>
				</port>
			</output>
		</layer>
		<layer id="77" name="__module.model.layers.0.self_attn.rotary_emb/aten::transpose/Transpose" type="Transpose" version="opset1">
			<input>
				<port id="0" precision="FP32">
					<dim>-1</dim>
					<dim>48</dim>
					<dim>-1</dim>
				</port>
				<port id="1" precision="I32">
					<dim>3</dim>
				</port>
			</input>
			<output>
				<port id="2" precision="FP32" names="1078,1239,1400,1561,1722,1883,2044,2205,2366,2527,2688,2849,3010,3171,3332,3493,3654,3815,3976,4137,4298,431,4459,4620,4781,4942,5103,5264,5425,595,756,917">
					<dim>-1</dim>
					<dim>-1</dim>
					<dim>48</dim>
				</port>
			</output>
		</layer>
		<layer id="78" name="__module.model.layers.0.self_attn.rotary_emb/aten::cat/Concat" type="Concat" version="opset1">
			<data axis="-1" />
			<input>
				<port id="0" precision="FP32">
					<dim>-1</dim>
					<dim>-1</dim>
					<dim>48</dim>
				</port>
				<port id="1" precision="FP32">
					<dim>-1</dim>
					<dim>-1</dim>
					<dim>48</dim>
				</port>
			</input>
			<output>
				<port id="2" precision="FP32" names="1080,1241,1402,1563,1724,1885,2046,2207,2368,2529,2690,2851,3012,3173,3334,3495,3656,3817,3978,4139,4300,433,4461,4622,4783,4944,5105,5266,5427,597,758,919,emb,emb.1,emb.11,emb.13,emb.15,emb.17,emb.19,emb.21,emb.23,emb.25,emb.27,emb.29,emb.3,emb.31,emb.33,emb.35,emb.37,emb.39,emb.41,emb.43,emb.45,emb.47,emb.49,emb.5,emb.51,emb.53,emb.55,emb.57,emb.59,emb.61,emb.7,emb.9">
					<dim>-1</dim>
					<dim>-1</dim>
					<dim>96</dim>
				</port>
			</output>
		</layer>
		<layer id="79" name="__module.model.layers.0.self_attn.rotary_emb/aten::cos/Cos" type="Cos" version="opset1">
			<input>
				<port id="0" precision="FP32">
					<dim>-1</dim>
					<dim>-1</dim>
					<dim>96</dim>
				</port>
			</input>
			<output>
				<port id="1" precision="FP32" names="1081,1242,1403,1564,1725,1886,2047,2208,2369,2530,2691,2852,3013,3174,3335,3496,3657,3818,3979,4140,4301,434,4462,4623,4784,4945,5106,5267,5428,598,759,920">
					<dim>-1</dim>
					<dim>-1</dim>
					<dim>96</dim>
				</port>
			</output>
		</layer>
		<layer id="80" name="Constant_85588" type="Const" version="opset1">
			<data element_type="f32" shape="1, 1, 1" offset="113330468" size="4" />
			<output>
				<port id="0" precision="FP32">
					<dim>1</dim>
					<dim>1</dim>
					<dim>1</dim>
				</port>
			</output>
		</layer>
		<layer id="81" name="__module.model.layers.0.self_attn.rotary_emb/aten::mul/Multiply_2" type="Multiply" version="opset1">
			<data auto_broadcast="numpy" />
			<input>
				<port id="0" precision="FP32">
					<dim>-1</dim>
					<dim>-1</dim>
					<dim>96</dim>
				</port>
				<port id="1" precision="FP32">
					<dim>1</dim>
					<dim>1</dim>
					<dim>1</dim>
				</port>
			</input>
			<output>
				<port id="2" precision="FP32" names="1082,1085,1088,1243,1246,1249,1404,1407,1410,1565,1568,1571,1726,1729,1732,1887,1890,1893,2048,2051,2054,2209,2212,2215,2370,2373,2376,2531,2534,2537,2692,2695,2698,2853,2856,2859,3014,3017,3020,3175,3178,3181,3336,3339,3342,3497,3500,3503,3658,3661,3664,3819,3822,3825,3980,3983,3986,4141,4144,4147,4302,4305,4308,435,438,441,4463,4466,4469,4624,4627,4630,4785,4788,4791,4946,4949,4952,5107,5110,5113,5268,5271,5274,5429,5432,5435,599,602,605,760,763,766,921,924,927,cos.1,cos.103,cos.105,cos.109,cos.111,cos.115,cos.117,cos.121,cos.123,cos.127,cos.129,cos.13,cos.133,cos.135,cos.139,cos.141,cos.145,cos.147,cos.15,cos.151,cos.153,cos.157,cos.159,cos.163,cos.165,cos.169,cos.171,cos.175,cos.177,cos.181,cos.183,cos.187,cos.189,cos.19,cos.21,cos.25,cos.27,cos.3,cos.31,cos.33,cos.37,cos.39,cos.43,cos.45,cos.49,cos.51,cos.55,cos.57,cos.61,cos.63,cos.67,cos.69,cos.7,cos.73,cos.75,cos.79,cos.81,cos.85,cos.87,cos.9,cos.91,cos.93,cos.97,cos.99">
					<dim>-1</dim>
					<dim>-1</dim>
					<dim>96</dim>
				</port>
			</output>
		</layer>
		<layer id="82" name="__module.model.layers.0.self_attn/aten::unsqueeze/Unsqueeze" type="Unsqueeze" version="opset1">
			<input>
				<port id="0" precision="FP32">
					<dim>-1</dim>
					<dim>-1</dim>
					<dim>96</dim>
				</port>
				<port id="1" precision="I64" />
			</input>
			<output>
				<port id="2" precision="FP32" names="1090,1251,1412,1573,1734,1895,2056,2217,2378,2539,2700,2861,3022,3183,3344,3505,3666,3827,3988,4149,4310,443,4471,4632,4793,4954,5115,5276,5437,607,768,929,cos,cos.101,cos.107,cos.11,cos.113,cos.119,cos.125,cos.131,cos.137,cos.143,cos.149,cos.155,cos.161,cos.167,cos.17,cos.173,cos.179,cos.185,cos.23,cos.29,cos.35,cos.41,cos.47,cos.5,cos.53,cos.59,cos.65,cos.71,cos.77,cos.83,cos.89,cos.95">
					<dim>-1</dim>
					<dim>1</dim>
					<dim>-1</dim>
					<dim>96</dim>
				</port>
			</output>
		</layer>
		<layer id="83" name="__module.model.layers.0.self_attn/aten::mul/Multiply" type="Multiply" version="opset1">
			<data auto_broadcast="numpy" />
			<input>
				<port id="0" precision="FP32">
					<dim>-1</dim>
					<dim>32</dim>
					<dim>-1</dim>
					<dim>96</dim>
				</port>
				<port id="1" precision="FP32">
					<dim>-1</dim>
					<dim>1</dim>
					<dim>-1</dim>
					<dim>96</dim>
				</port>
			</input>
			<output>
				<port id="2" precision="FP32" names="445">
					<dim>-1</dim>
					<dim>32</dim>
					<dim>-1</dim>
					<dim>96</dim>
				</port>
			</output>
		</layer>
		<layer id="84" name="Constant_1024" type="Const" version="opset1">
			<data element_type="i64" shape="1" offset="113330472" size="8" />
			<output>
				<port id="0" precision="I64">
					<dim>1</dim>
				</port>
			</output>
		</layer>
		<layer id="85" name="Constant_1026" type="Const" version="opset1">
			<data element_type="i64" shape="1" offset="113330480" size="8" />
			<output>
				<port id="0" precision="I64">
					<dim>1</dim>
				</port>
			</output>
		</layer>
		<layer id="86" name="Constant_1028" type="Const" version="opset1">
			<data element_type="i64" shape="1" offset="113330184" size="8" />
			<output>
				<port id="0" precision="I64">
					<dim>1</dim>
				</port>
			</output>
		</layer>
		<layer id="87" name="__module.model.layers.0.self_attn/aten::slice/Reshape_1" type="Const" version="opset1">
			<data element_type="i64" shape="1" offset="113330488" size="8" />
			<output>
				<port id="0" precision="I64">
					<dim>1</dim>
				</port>
			</output>
		</layer>
		<layer id="88" name="__module.model.layers.0.self_attn/aten::slice/Slice_1" type="Slice" version="opset8">
			<input>
				<port id="0" precision="FP32">
					<dim>-1</dim>
					<dim>32</dim>
					<dim>-1</dim>
					<dim>96</dim>
				</port>
				<port id="1" precision="I64">
					<dim>1</dim>
				</port>
				<port id="2" precision="I64">
					<dim>1</dim>
				</port>
				<port id="3" precision="I64">
					<dim>1</dim>
				</port>
				<port id="4" precision="I64">
					<dim>1</dim>
				</port>
			</input>
			<output>
				<port id="5" precision="FP32" names="455,x2.1">
					<dim>-1</dim>
					<dim>32</dim>
					<dim>-1</dim>
					<dim>48</dim>
				</port>
			</output>
		</layer>
		<layer id="89" name="Constant_85589" type="Const" version="opset1">
			<data element_type="f32" shape="1, 1, 1, 1" offset="113330496" size="4" />
			<output>
				<port id="0" precision="FP32">
					<dim>1</dim>
					<dim>1</dim>
					<dim>1</dim>
					<dim>1</dim>
				</port>
			</output>
		</layer>
		<layer id="90" name="__module.model.layers.0.self_attn/aten::neg/Multiply" type="Multiply" version="opset1">
			<data auto_broadcast="numpy" />
			<input>
				<port id="0" precision="FP32">
					<dim>-1</dim>
					<dim>32</dim>
					<dim>-1</dim>
					<dim>48</dim>
				</port>
				<port id="1" precision="FP32">
					<dim>1</dim>
					<dim>1</dim>
					<dim>1</dim>
					<dim>1</dim>
				</port>
			</input>
			<output>
				<port id="2" precision="FP32" names="456">
					<dim>-1</dim>
					<dim>32</dim>
					<dim>-1</dim>
					<dim>48</dim>
				</port>
			</output>
		</layer>
		<layer id="91" name="Constant_921" type="Const" version="opset1">
			<data element_type="i64" shape="1" offset="4" size="8" />
			<output>
				<port id="0" precision="I64">
					<dim>1</dim>
				</port>
			</output>
		</layer>
		<layer id="92" name="Constant_965" type="Const" version="opset1">
			<data element_type="i64" shape="1" offset="113330472" size="8" />
			<output>
				<port id="0" precision="I64">
					<dim>1</dim>
				</port>
			</output>
		</layer>
		<layer id="93" name="Constant_967" type="Const" version="opset1">
			<data element_type="i64" shape="1" offset="113330184" size="8" />
			<output>
				<port id="0" precision="I64">
					<dim>1</dim>
				</port>
			</output>
		</layer>
		<layer id="94" name="__module.model.layers.0.self_attn/aten::slice/Slice_2" type="Slice" version="opset8">
			<input>
				<port id="0" precision="FP32">
					<dim>-1</dim>
					<dim>32</dim>
					<dim>-1</dim>
					<dim>96</dim>
				</port>
				<port id="1" precision="I64">
					<dim>1</dim>
				</port>
				<port id="2" precision="I64">
					<dim>1</dim>
				</port>
				<port id="3" precision="I64">
					<dim>1</dim>
				</port>
				<port id="4" precision="I64">
					<dim>1</dim>
				</port>
			</input>
			<output>
				<port id="5" precision="FP32" names="450">
					<dim>-1</dim>
					<dim>32</dim>
					<dim>-1</dim>
					<dim>48</dim>
				</port>
			</output>
		</layer>
		<layer id="95" name="__module.model.layers.0.self_attn/aten::cat/Concat" type="Concat" version="opset1">
			<data axis="-1" />
			<input>
				<port id="0" precision="FP32">
					<dim>-1</dim>
					<dim>32</dim>
					<dim>-1</dim>
					<dim>48</dim>
				</port>
				<port id="1" precision="FP32">
					<dim>-1</dim>
					<dim>32</dim>
					<dim>-1</dim>
					<dim>48</dim>
				</port>
			</input>
			<output>
				<port id="2" precision="FP32" names="458">
					<dim>-1</dim>
					<dim>32</dim>
					<dim>-1</dim>
					<dim>96</dim>
				</port>
			</output>
		</layer>
		<layer id="96" name="__module.model.layers.0.self_attn.rotary_emb/aten::sin/Sin" type="Sin" version="opset1">
			<input>
				<port id="0" precision="FP32">
					<dim>-1</dim>
					<dim>-1</dim>
					<dim>96</dim>
				</port>
			</input>
			<output>
				<port id="1" precision="FP32" names="1083,1244,1405,1566,1727,1888,2049,2210,2371,2532,2693,2854,3015,3176,3337,3498,3659,3820,3981,4142,4303,436,4464,4625,4786,4947,5108,5269,5430,600,761,922">
					<dim>-1</dim>
					<dim>-1</dim>
					<dim>96</dim>
				</port>
			</output>
		</layer>
		<layer id="97" name="Constant_85590" type="Const" version="opset1">
			<data element_type="f32" shape="1, 1, 1" offset="113330468" size="4" />
			<output>
				<port id="0" precision="FP32">
					<dim>1</dim>
					<dim>1</dim>
					<dim>1</dim>
				</port>
			</output>
		</layer>
		<layer id="98" name="__module.model.layers.0.self_attn.rotary_emb/aten::mul/Multiply_3" type="Multiply" version="opset1">
			<data auto_broadcast="numpy" />
			<input>
				<port id="0" precision="FP32">
					<dim>-1</dim>
					<dim>-1</dim>
					<dim>96</dim>
				</port>
				<port id="1" precision="FP32">
					<dim>1</dim>
					<dim>1</dim>
					<dim>1</dim>
				</port>
			</input>
			<output>
				<port id="2" precision="FP32" names="1084,1086,1089,1245,1247,1250,1406,1408,1411,1567,1569,1572,1728,1730,1733,1889,1891,1894,2050,2052,2055,2211,2213,2216,2372,2374,2377,2533,2535,2538,2694,2696,2699,2855,2857,2860,3016,3018,3021,3177,3179,3182,3338,3340,3343,3499,3501,3504,3660,3662,3665,3821,3823,3826,3982,3984,3987,4143,4145,4148,4304,4306,4309,437,439,442,4465,4467,4470,4626,4628,4631,4787,4789,4792,4948,4950,4953,5109,5111,5114,5270,5272,5275,5431,5433,5436,601,603,606,762,764,767,923,925,928,sin.1,sin.103,sin.105,sin.109,sin.111,sin.115,sin.117,sin.121,sin.123,sin.127,sin.129,sin.13,sin.133,sin.135,sin.139,sin.141,sin.145,sin.147,sin.15,sin.151,sin.153,sin.157,sin.159,sin.163,sin.165,sin.169,sin.171,sin.175,sin.177,sin.181,sin.183,sin.187,sin.189,sin.19,sin.21,sin.25,sin.27,sin.3,sin.31,sin.33,sin.37,sin.39,sin.43,sin.45,sin.49,sin.51,sin.55,sin.57,sin.61,sin.63,sin.67,sin.69,sin.7,sin.73,sin.75,sin.79,sin.81,sin.85,sin.87,sin.9,sin.91,sin.93,sin.97,sin.99">
					<dim>-1</dim>
					<dim>-1</dim>
					<dim>96</dim>
				</port>
			</output>
		</layer>
		<layer id="99" name="__module.model.layers.0.self_attn/aten::unsqueeze/Unsqueeze_1" type="Unsqueeze" version="opset1">
			<input>
				<port id="0" precision="FP32">
					<dim>-1</dim>
					<dim>-1</dim>
					<dim>96</dim>
				</port>
				<port id="1" precision="I64" />
			</input>
			<output>
				<port id="2" precision="FP32" names="1091,1252,1413,1574,1735,1896,2057,2218,2379,2540,2701,2862,3023,3184,3345,3506,3667,3828,3989,4150,4311,444,4472,4633,4794,4955,5116,5277,5438,608,769,930,sin,sin.101,sin.107,sin.11,sin.113,sin.119,sin.125,sin.131,sin.137,sin.143,sin.149,sin.155,sin.161,sin.167,sin.17,sin.173,sin.179,sin.185,sin.23,sin.29,sin.35,sin.41,sin.47,sin.5,sin.53,sin.59,sin.65,sin.71,sin.77,sin.83,sin.89,sin.95">
					<dim>-1</dim>
					<dim>1</dim>
					<dim>-1</dim>
					<dim>96</dim>
				</port>
			</output>
		</layer>
		<layer id="100" name="__module.model.layers.0.self_attn/aten::mul/Multiply_1" type="Multiply" version="opset1">
			<data auto_broadcast="numpy" />
			<input>
				<port id="0" precision="FP32">
					<dim>-1</dim>
					<dim>32</dim>
					<dim>-1</dim>
					<dim>96</dim>
				</port>
				<port id="1" precision="FP32">
					<dim>-1</dim>
					<dim>1</dim>
					<dim>-1</dim>
					<dim>96</dim>
				</port>
			</input>
			<output>
				<port id="2" precision="FP32" names="459">
					<dim>-1</dim>
					<dim>32</dim>
					<dim>-1</dim>
					<dim>96</dim>
				</port>
			</output>
		</layer>
		<layer id="101" name="__module.model.layers.0.self_attn/aten::add/Add" type="Add" version="opset1">
			<data auto_broadcast="numpy" />
			<input>
				<port id="0" precision="FP32">
					<dim>-1</dim>
					<dim>32</dim>
					<dim>-1</dim>
					<dim>96</dim>
				</port>
				<port id="1" precision="FP32">
					<dim>-1</dim>
					<dim>32</dim>
					<dim>-1</dim>
					<dim>96</dim>
				</port>
			</input>
			<output>
				<port id="2" precision="FP32" names="460">
					<dim>-1</dim>
					<dim>32</dim>
					<dim>-1</dim>
					<dim>96</dim>
				</port>
			</output>
		</layer>
		<layer id="102" name="Constant_97753" type="Const" version="opset1">
			<data element_type="f32" shape="" offset="0" size="4" />
			<output>
				<port id="0" precision="FP32" />
			</output>
		</layer>
		<layer id="103" name="Constant_97746" type="Const" version="opset1">
			<data element_type="i64" shape="1" offset="12" size="8" />
			<output>
				<port id="0" precision="I64">
					<dim>1</dim>
				</port>
			</output>
		</layer>
		<layer id="104" name="Constant_97748" type="Const" version="opset1">
			<data element_type="i64" shape="1" offset="4" size="8" />
			<output>
				<port id="0" precision="I64">
					<dim>1</dim>
				</port>
			</output>
		</layer>
		<layer id="105" name="Constant_97750" type="Const" version="opset1">
			<data element_type="i64" shape="1" offset="20" size="8" />
			<output>
				<port id="0" precision="I64">
					<dim>1</dim>
				</port>
			</output>
		</layer>
		<layer id="106" name="Concat_97751" type="Concat" version="opset1">
			<data axis="0" />
			<input>
				<port id="0" precision="I64">
					<dim>1</dim>
				</port>
				<port id="1" precision="I64">
					<dim>1</dim>
				</port>
				<port id="2" precision="I64">
					<dim>1</dim>
				</port>
				<port id="3" precision="I64">
					<dim>1</dim>
				</port>
			</input>
			<output>
				<port id="4" precision="I64">
					<dim>4</dim>
				</port>
			</output>
		</layer>
		<layer id="107" name="Broadcast_97754" type="Broadcast" version="opset3">
			<data mode="numpy" />
			<input>
				<port id="0" precision="FP32" />
				<port id="1" precision="I64">
					<dim>4</dim>
				</port>
			</input>
			<output>
				<port id="2" precision="FP32">
					<dim>-1</dim>
					<dim>32</dim>
					<dim>0</dim>
					<dim>96</dim>
				</port>
			</output>
		</layer>
		<layer id="108" name="ReadValue_96596" type="ReadValue" version="opset6">
			<data variable_id="past_key_values.0.keypresent.0.key" variable_type="f32" variable_shape="?,32,?,96" />
			<input>
				<port id="0" precision="FP32">
					<dim>-1</dim>
					<dim>32</dim>
					<dim>0</dim>
					<dim>96</dim>
				</port>
			</input>
			<output>
				<port id="1" precision="FP32" names="past_key_values.0.key">
					<dim>-1</dim>
					<dim>32</dim>
					<dim>-1</dim>
					<dim>96</dim>
				</port>
			</output>
		</layer>
		<layer id="109" name="Constant_95402" type="Const" version="opset1">
			<data element_type="i64" shape="" offset="4" size="8" />
			<output>
				<port id="0" precision="I64" />
			</output>
		</layer>
		<layer id="110" name="Gather_95403" type="Gather" version="opset8">
			<data batch_dims="0" />
			<input>
				<port id="0" precision="FP32">
					<dim>-1</dim>
					<dim>32</dim>
					<dim>-1</dim>
					<dim>96</dim>
				</port>
				<port id="1" precision="I32">
					<dim>-1</dim>
				</port>
				<port id="2" precision="I64" />
			</input>
			<output>
				<port id="3" precision="FP32">
					<dim>-1</dim>
					<dim>32</dim>
					<dim>-1</dim>
					<dim>96</dim>
				</port>
			</output>
		</layer>
		<layer id="111" name="Constant_467" type="Const" version="opset1">
			<data element_type="i64" shape="1" offset="113330176" size="8" />
			<output>
				<port id="0" precision="I64">
					<dim>1</dim>
				</port>
			</output>
		</layer>
		<layer id="112" name="Constant_469" type="Const" version="opset1">
			<data element_type="i64" shape="1" offset="113330500" size="8" />
			<output>
				<port id="0" precision="I64">
					<dim>1</dim>
				</port>
			</output>
		</layer>
		<layer id="113" name="Constant_471" type="Const" version="opset1">
			<data element_type="i64" shape="1" offset="113330184" size="8" />
			<output>
				<port id="0" precision="I64">
					<dim>1</dim>
				</port>
			</output>
		</layer>
		<layer id="114" name="__module.model.layers.0.self_attn/aten::slice/Slice_3" type="Slice" version="opset8">
			<input>
				<port id="0" precision="FP32">
					<dim>-1</dim>
					<dim>-1</dim>
					<dim>9216</dim>
				</port>
				<port id="1" precision="I64">
					<dim>1</dim>
				</port>
				<port id="2" precision="I64">
					<dim>1</dim>
				</port>
				<port id="3" precision="I64">
					<dim>1</dim>
				</port>
				<port id="4" precision="I64">
					<dim>1</dim>
				</port>
			</input>
			<output>
				<port id="5" precision="FP32" names="392,key_states.3">
					<dim>-1</dim>
					<dim>-1</dim>
					<dim>3072</dim>
				</port>
			</output>
		</layer>
		<layer id="115" name="Constant_92145" type="Const" version="opset1">
			<data element_type="i64" shape="4" offset="113330200" size="32" />
			<output>
				<port id="0" precision="I64">
					<dim>4</dim>
				</port>
			</output>
		</layer>
		<layer id="116" name="__module.model.layers.0.self_attn/aten::view/Reshape_1" type="Reshape" version="opset1">
			<data special_zero="true" />
			<input>
				<port id="0" precision="FP32">
					<dim>-1</dim>
					<dim>-1</dim>
					<dim>3072</dim>
				</port>
				<port id="1" precision="I64">
					<dim>4</dim>
				</port>
			</input>
			<output>
				<port id="2" precision="FP32" names="398">
					<dim>-1</dim>
					<dim>-1</dim>
					<dim>32</dim>
					<dim>96</dim>
				</port>
			</output>
		</layer>
		<layer id="117" name="__module.model.layers.0.self_attn/aten::transpose/Constant_1" type="Const" version="opset1">
			<data element_type="i32" shape="4" offset="113330232" size="16" />
			<output>
				<port id="0" precision="I32">
					<dim>4</dim>
				</port>
			</output>
		</layer>
		<layer id="118" name="__module.model.layers.0.self_attn/aten::transpose/Transpose_1" type="Transpose" version="opset1">
			<input>
				<port id="0" precision="FP32">
					<dim>-1</dim>
					<dim>-1</dim>
					<dim>32</dim>
					<dim>96</dim>
				</port>
				<port id="1" precision="I32">
					<dim>4</dim>
				</port>
			</input>
			<output>
				<port id="2" precision="FP32" names="399,key_states.5">
					<dim>-1</dim>
					<dim>32</dim>
					<dim>-1</dim>
					<dim>96</dim>
				</port>
			</output>
		</layer>
		<layer id="119" name="__module.model.layers.0.self_attn/aten::mul/Multiply_2" type="Multiply" version="opset1">
			<data auto_broadcast="numpy" />
			<input>
				<port id="0" precision="FP32">
					<dim>-1</dim>
					<dim>32</dim>
					<dim>-1</dim>
					<dim>96</dim>
				</port>
				<port id="1" precision="FP32">
					<dim>-1</dim>
					<dim>1</dim>
					<dim>-1</dim>
					<dim>96</dim>
				</port>
			</input>
			<output>
				<port id="2" precision="FP32" names="461">
					<dim>-1</dim>
					<dim>32</dim>
					<dim>-1</dim>
					<dim>96</dim>
				</port>
			</output>
		</layer>
		<layer id="120" name="Constant_1167" type="Const" version="opset1">
			<data element_type="i64" shape="1" offset="113330472" size="8" />
			<output>
				<port id="0" precision="I64">
					<dim>1</dim>
				</port>
			</output>
		</layer>
		<layer id="121" name="Constant_1169" type="Const" version="opset1">
			<data element_type="i64" shape="1" offset="113330480" size="8" />
			<output>
				<port id="0" precision="I64">
					<dim>1</dim>
				</port>
			</output>
		</layer>
		<layer id="122" name="Constant_1171" type="Const" version="opset1">
			<data element_type="i64" shape="1" offset="113330184" size="8" />
			<output>
				<port id="0" precision="I64">
					<dim>1</dim>
				</port>
			</output>
		</layer>
		<layer id="123" name="__module.model.layers.0.self_attn/aten::slice/Slice_4" type="Slice" version="opset8">
			<input>
				<port id="0" precision="FP32">
					<dim>-1</dim>
					<dim>32</dim>
					<dim>-1</dim>
					<dim>96</dim>
				</port>
				<port id="1" precision="I64">
					<dim>1</dim>
				</port>
				<port id="2" precision="I64">
					<dim>1</dim>
				</port>
				<port id="3" precision="I64">
					<dim>1</dim>
				</port>
				<port id="4" precision="I64">
					<dim>1</dim>
				</port>
			</input>
			<output>
				<port id="5" precision="FP32" names="471,x2.3">
					<dim>-1</dim>
					<dim>32</dim>
					<dim>-1</dim>
					<dim>48</dim>
				</port>
			</output>
		</layer>
		<layer id="124" name="Constant_85591" type="Const" version="opset1">
			<data element_type="f32" shape="1, 1, 1, 1" offset="113330496" size="4" />
			<output>
				<port id="0" precision="FP32">
					<dim>1</dim>
					<dim>1</dim>
					<dim>1</dim>
					<dim>1</dim>
				</port>
			</output>
		</layer>
		<layer id="125" name="__module.model.layers.0.self_attn/aten::neg/Multiply_1" type="Multiply" version="opset1">
			<data auto_broadcast="numpy" />
			<input>
				<port id="0" precision="FP32">
					<dim>-1</dim>
					<dim>32</dim>
					<dim>-1</dim>
					<dim>48</dim>
				</port>
				<port id="1" precision="FP32">
					<dim>1</dim>
					<dim>1</dim>
					<dim>1</dim>
					<dim>1</dim>
				</port>
			</input>
			<output>
				<port id="2" precision="FP32" names="472">
					<dim>-1</dim>
					<dim>32</dim>
					<dim>-1</dim>
					<dim>48</dim>
				</port>
			</output>
		</layer>
		<layer id="126" name="Constant_1064" type="Const" version="opset1">
			<data element_type="i64" shape="1" offset="4" size="8" />
			<output>
				<port id="0" precision="I64">
					<dim>1</dim>
				</port>
			</output>
		</layer>
		<layer id="127" name="Constant_1108" type="Const" version="opset1">
			<data element_type="i64" shape="1" offset="113330472" size="8" />
			<output>
				<port id="0" precision="I64">
					<dim>1</dim>
				</port>
			</output>
		</layer>
		<layer id="128" name="Constant_1110" type="Const" version="opset1">
			<data element_type="i64" shape="1" offset="113330184" size="8" />
			<output>
				<port id="0" precision="I64">
					<dim>1</dim>
				</port>
			</output>
		</layer>
		<layer id="129" name="__module.model.layers.0.self_attn/aten::slice/Slice_5" type="Slice" version="opset8">
			<input>
				<port id="0" precision="FP32">
					<dim>-1</dim>
					<dim>32</dim>
					<dim>-1</dim>
					<dim>96</dim>
				</port>
				<port id="1" precision="I64">
					<dim>1</dim>
				</port>
				<port id="2" precision="I64">
					<dim>1</dim>
				</port>
				<port id="3" precision="I64">
					<dim>1</dim>
				</port>
				<port id="4" precision="I64">
					<dim>1</dim>
				</port>
			</input>
			<output>
				<port id="5" precision="FP32" names="466">
					<dim>-1</dim>
					<dim>32</dim>
					<dim>-1</dim>
					<dim>48</dim>
				</port>
			</output>
		</layer>
		<layer id="130" name="__module.model.layers.0.self_attn/aten::cat/Concat_1" type="Concat" version="opset1">
			<data axis="-1" />
			<input>
				<port id="0" precision="FP32">
					<dim>-1</dim>
					<dim>32</dim>
					<dim>-1</dim>
					<dim>48</dim>
				</port>
				<port id="1" precision="FP32">
					<dim>-1</dim>
					<dim>32</dim>
					<dim>-1</dim>
					<dim>48</dim>
				</port>
			</input>
			<output>
				<port id="2" precision="FP32" names="474">
					<dim>-1</dim>
					<dim>32</dim>
					<dim>-1</dim>
					<dim>96</dim>
				</port>
			</output>
		</layer>
		<layer id="131" name="__module.model.layers.0.self_attn/aten::mul/Multiply_3" type="Multiply" version="opset1">
			<data auto_broadcast="numpy" />
			<input>
				<port id="0" precision="FP32">
					<dim>-1</dim>
					<dim>32</dim>
					<dim>-1</dim>
					<dim>96</dim>
				</port>
				<port id="1" precision="FP32">
					<dim>-1</dim>
					<dim>1</dim>
					<dim>-1</dim>
					<dim>96</dim>
				</port>
			</input>
			<output>
				<port id="2" precision="FP32" names="475">
					<dim>-1</dim>
					<dim>32</dim>
					<dim>-1</dim>
					<dim>96</dim>
				</port>
			</output>
		</layer>
		<layer id="132" name="__module.model.layers.0.self_attn/aten::add/Add_1" type="Add" version="opset1">
			<data auto_broadcast="numpy" />
			<input>
				<port id="0" precision="FP32">
					<dim>-1</dim>
					<dim>32</dim>
					<dim>-1</dim>
					<dim>96</dim>
				</port>
				<port id="1" precision="FP32">
					<dim>-1</dim>
					<dim>32</dim>
					<dim>-1</dim>
					<dim>96</dim>
				</port>
			</input>
			<output>
				<port id="2" precision="FP32" names="476,key_states.7">
					<dim>-1</dim>
					<dim>32</dim>
					<dim>-1</dim>
					<dim>96</dim>
				</port>
			</output>
		</layer>
		<layer id="133" name="__module.model.layers.0.self_attn/aten::cat/Concat_2" type="Concat" version="opset1">
			<data axis="-2" />
			<input>
				<port id="0" precision="FP32">
					<dim>-1</dim>
					<dim>32</dim>
					<dim>-1</dim>
					<dim>96</dim>
				</port>
				<port id="1" precision="FP32">
					<dim>-1</dim>
					<dim>32</dim>
					<dim>-1</dim>
					<dim>96</dim>
				</port>
			</input>
			<output>
				<port id="2" precision="FP32" names="present.0.key">
					<dim>-1</dim>
					<dim>32</dim>
					<dim>-1</dim>
					<dim>96</dim>
				</port>
			</output>
		</layer>
		<layer id="134" name="Constant_97765" type="Const" version="opset1">
			<data element_type="f32" shape="" offset="0" size="4" />
			<output>
				<port id="0" precision="FP32" />
			</output>
		</layer>
		<layer id="135" name="Constant_97758" type="Const" version="opset1">
			<data element_type="i64" shape="1" offset="12" size="8" />
			<output>
				<port id="0" precision="I64">
					<dim>1</dim>
				</port>
			</output>
		</layer>
		<layer id="136" name="Constant_97760" type="Const" version="opset1">
			<data element_type="i64" shape="1" offset="4" size="8" />
			<output>
				<port id="0" precision="I64">
					<dim>1</dim>
				</port>
			</output>
		</layer>
		<layer id="137" name="Constant_97762" type="Const" version="opset1">
			<data element_type="i64" shape="1" offset="20" size="8" />
			<output>
				<port id="0" precision="I64">
					<dim>1</dim>
				</port>
			</output>
		</layer>
		<layer id="138" name="Concat_97763" type="Concat" version="opset1">
			<data axis="0" />
			<input>
				<port id="0" precision="I64">
					<dim>1</dim>
				</port>
				<port id="1" precision="I64">
					<dim>1</dim>
				</port>
				<port id="2" precision="I64">
					<dim>1</dim>
				</port>
				<port id="3" precision="I64">
					<dim>1</dim>
				</port>
			</input>
			<output>
				<port id="4" precision="I64">
					<dim>4</dim>
				</port>
			</output>
		</layer>
		<layer id="139" name="Broadcast_97766" type="Broadcast" version="opset3">
			<data mode="numpy" />
			<input>
				<port id="0" precision="FP32" />
				<port id="1" precision="I64">
					<dim>4</dim>
				</port>
			</input>
			<output>
				<port id="2" precision="FP32">
					<dim>-1</dim>
					<dim>32</dim>
					<dim>0</dim>
					<dim>96</dim>
				</port>
			</output>
		</layer>
		<layer id="140" name="ReadValue_96598" type="ReadValue" version="opset6">
			<data variable_id="past_key_values.0.valuepresent.0.value" variable_type="f32" variable_shape="?,32,?,96" />
			<input>
				<port id="0" precision="FP32">
					<dim>-1</dim>
					<dim>32</dim>
					<dim>0</dim>
					<dim>96</dim>
				</port>
			</input>
			<output>
				<port id="1" precision="FP32" names="past_key_values.0.value">
					<dim>-1</dim>
					<dim>32</dim>
					<dim>-1</dim>
					<dim>96</dim>
				</port>
			</output>
		</layer>
		<layer id="141" name="Constant_95405" type="Const" version="opset1">
			<data element_type="i64" shape="" offset="4" size="8" />
			<output>
				<port id="0" precision="I64" />
			</output>
		</layer>
		<layer id="142" name="Gather_95406" type="Gather" version="opset8">
			<data batch_dims="0" />
			<input>
				<port id="0" precision="FP32">
					<dim>-1</dim>
					<dim>32</dim>
					<dim>-1</dim>
					<dim>96</dim>
				</port>
				<port id="1" precision="I32">
					<dim>-1</dim>
				</port>
				<port id="2" precision="I64" />
			</input>
			<output>
				<port id="3" precision="FP32">
					<dim>-1</dim>
					<dim>32</dim>
					<dim>-1</dim>
					<dim>96</dim>
				</port>
			</output>
		</layer>
		<layer id="143" name="Constant_477" type="Const" version="opset1">
			<data element_type="i64" shape="1" offset="113330500" size="8" />
			<output>
				<port id="0" precision="I64">
					<dim>1</dim>
				</port>
			</output>
		</layer>
		<layer id="144" name="Constant_479" type="Const" version="opset1">
			<data element_type="i64" shape="1" offset="113330480" size="8" />
			<output>
				<port id="0" precision="I64">
					<dim>1</dim>
				</port>
			</output>
		</layer>
		<layer id="145" name="Constant_481" type="Const" version="opset1">
			<data element_type="i64" shape="1" offset="113330184" size="8" />
			<output>
				<port id="0" precision="I64">
					<dim>1</dim>
				</port>
			</output>
		</layer>
		<layer id="146" name="__module.model.layers.0.self_attn/aten::slice/Slice_6" type="Slice" version="opset8">
			<input>
				<port id="0" precision="FP32">
					<dim>-1</dim>
					<dim>-1</dim>
					<dim>9216</dim>
				</port>
				<port id="1" precision="I64">
					<dim>1</dim>
				</port>
				<port id="2" precision="I64">
					<dim>1</dim>
				</port>
				<port id="3" precision="I64">
					<dim>1</dim>
				</port>
				<port id="4" precision="I64">
					<dim>1</dim>
				</port>
			</input>
			<output>
				<port id="5" precision="FP32" names="393,value_states.1">
					<dim>-1</dim>
					<dim>-1</dim>
					<dim>3072</dim>
				</port>
			</output>
		</layer>
		<layer id="147" name="Constant_92146" type="Const" version="opset1">
			<data element_type="i64" shape="4" offset="113330200" size="32" />
			<output>
				<port id="0" precision="I64">
					<dim>4</dim>
				</port>
			</output>
		</layer>
		<layer id="148" name="__module.model.layers.0.self_attn/aten::view/Reshape_2" type="Reshape" version="opset1">
			<data special_zero="true" />
			<input>
				<port id="0" precision="FP32">
					<dim>-1</dim>
					<dim>-1</dim>
					<dim>3072</dim>
				</port>
				<port id="1" precision="I64">
					<dim>4</dim>
				</port>
			</input>
			<output>
				<port id="2" precision="FP32" names="401">
					<dim>-1</dim>
					<dim>-1</dim>
					<dim>32</dim>
					<dim>96</dim>
				</port>
			</output>
		</layer>
		<layer id="149" name="__module.model.layers.0.self_attn/aten::transpose/Constant_2" type="Const" version="opset1">
			<data element_type="i32" shape="4" offset="113330232" size="16" />
			<output>
				<port id="0" precision="I32">
					<dim>4</dim>
				</port>
			</output>
		</layer>
		<layer id="150" name="__module.model.layers.0.self_attn/aten::transpose/Transpose_2" type="Transpose" version="opset1">
			<input>
				<port id="0" precision="FP32">
					<dim>-1</dim>
					<dim>-1</dim>
					<dim>32</dim>
					<dim>96</dim>
				</port>
				<port id="1" precision="I32">
					<dim>4</dim>
				</port>
			</input>
			<output>
				<port id="2" precision="FP32" names="402">
					<dim>-1</dim>
					<dim>32</dim>
					<dim>-1</dim>
					<dim>96</dim>
				</port>
			</output>
		</layer>
		<layer id="151" name="__module.model.layers.0.self_attn/aten::cat/Concat_3" type="Concat" version="opset1">
			<data axis="-2" />
			<input>
				<port id="0" precision="FP32">
					<dim>-1</dim>
					<dim>32</dim>
					<dim>-1</dim>
					<dim>96</dim>
				</port>
				<port id="1" precision="FP32">
					<dim>-1</dim>
					<dim>32</dim>
					<dim>-1</dim>
					<dim>96</dim>
				</port>
			</input>
			<output>
				<port id="2" precision="FP32" names="present.0.value">
					<dim>-1</dim>
					<dim>32</dim>
					<dim>-1</dim>
					<dim>96</dim>
				</port>
			</output>
		</layer>
		<layer id="152" name="Constant_85593" type="Const" version="opset1">
			<data element_type="f32" shape="1, 1, 1, 1" offset="98621404" size="4" />
			<output>
				<port id="0" precision="FP32">
					<dim>1</dim>
					<dim>1</dim>
					<dim>1</dim>
					<dim>1</dim>
				</port>
			</output>
		</layer>
		<layer id="153" name="__module.model/aten::unsqueeze/Unsqueeze" type="Unsqueeze" version="opset1">
			<input>
				<port id="0" precision="I64">
					<dim>-1</dim>
					<dim>-1</dim>
				</port>
				<port id="1" precision="I64" />
			</input>
			<output>
				<port id="2" precision="I64" names="356">
					<dim>-1</dim>
					<dim>1</dim>
					<dim>-1</dim>
				</port>
			</output>
		</layer>
		<layer id="154" name="238" type="Const" version="opset1">
			<data element_type="i64" shape="" offset="113330192" size="8" />
			<output>
				<port id="0" precision="I64" names="238" />
			</output>
		</layer>
		<layer id="155" name="__module.model/aten::unsqueeze/Unsqueeze_1" type="Unsqueeze" version="opset1">
			<input>
				<port id="0" precision="I64">
					<dim>-1</dim>
					<dim>1</dim>
					<dim>-1</dim>
				</port>
				<port id="1" precision="I64" />
			</input>
			<output>
				<port id="2" precision="I64" names="357,358">
					<dim>-1</dim>
					<dim>1</dim>
					<dim>1</dim>
					<dim>-1</dim>
				</port>
			</output>
		</layer>
		<layer id="156" name="Constant_75610" type="Const" version="opset1">
			<data element_type="i64" shape="1" offset="113330184" size="8" />
			<output>
				<port id="0" precision="I64">
					<dim>1</dim>
				</port>
			</output>
		</layer>
		<layer id="157" name="Constant_89424" type="Const" version="opset1">
			<data element_type="i64" shape="" offset="113330184" size="8" />
			<output>
				<port id="0" precision="I64" />
			</output>
		</layer>
		<layer id="158" name="Constant_89425" type="Const" version="opset1">
			<data element_type="i64" shape="" offset="4" size="8" />
			<output>
				<port id="0" precision="I64" />
			</output>
		</layer>
		<layer id="159" name="Gather_89426" type="Gather" version="opset8">
			<data batch_dims="0" />
			<input>
				<port id="0" precision="I64">
					<dim>2</dim>
				</port>
				<port id="1" precision="I64" />
				<port id="2" precision="I64" />
			</input>
			<output>
				<port id="3" precision="I64" names="306,324,327" />
			</output>
		</layer>
		<layer id="160" name="Constant_89427" type="Const" version="opset1">
			<data element_type="i64" shape="1" offset="113330184" size="8" />
			<output>
				<port id="0" precision="I64">
					<dim>1</dim>
				</port>
			</output>
		</layer>
		<layer id="161" name="Reshape_89428" type="Reshape" version="opset1">
			<data special_zero="false" />
			<input>
				<port id="0" precision="I64" />
				<port id="1" precision="I64">
					<dim>1</dim>
				</port>
			</input>
			<output>
				<port id="2" precision="I64">
					<dim>1</dim>
				</port>
			</output>
		</layer>
		<layer id="162" name="ShapeOf_89447" type="ShapeOf" version="opset3">
			<data output_type="i64" />
			<input>
				<port id="0" precision="I64">
					<dim>-1</dim>
					<dim>-1</dim>
				</port>
			</input>
			<output>
				<port id="1" precision="I64">
					<dim>2</dim>
				</port>
			</output>
		</layer>
		<layer id="163" name="Constant_89448" type="Const" version="opset1">
			<data element_type="i64" shape="1" offset="113330184" size="8" />
			<output>
				<port id="0" precision="I64">
					<dim>1</dim>
				</port>
			</output>
		</layer>
		<layer id="164" name="Constant_89449" type="Const" version="opset1">
			<data element_type="i64" shape="" offset="4" size="8" />
			<output>
				<port id="0" precision="I64" />
			</output>
		</layer>
		<layer id="165" name="Gather_89450" type="Gather" version="opset8">
			<data batch_dims="0" />
			<input>
				<port id="0" precision="I64">
					<dim>2</dim>
				</port>
				<port id="1" precision="I64">
					<dim>1</dim>
				</port>
				<port id="2" precision="I64" />
			</input>
			<output>
				<port id="3" precision="I64" names="354">
					<dim>1</dim>
				</port>
			</output>
		</layer>
		<layer id="166" name="__module.model/prim::ListConstruct_1" type="Concat" version="opset1">
			<data axis="0" />
			<input>
				<port id="0" precision="I64">
					<dim>1</dim>
				</port>
				<port id="1" precision="I64">
					<dim>1</dim>
				</port>
				<port id="2" precision="I64">
					<dim>1</dim>
				</port>
				<port id="3" precision="I64">
					<dim>1</dim>
				</port>
			</input>
			<output>
				<port id="4" precision="I64">
					<dim>4</dim>
				</port>
			</output>
		</layer>
		<layer id="167" name="__module.model/aten::expand/Broadcast" type="Broadcast" version="opset3">
			<data mode="bidirectional" />
			<input>
				<port id="0" precision="I64">
					<dim>-1</dim>
					<dim>1</dim>
					<dim>1</dim>
					<dim>-1</dim>
				</port>
				<port id="1" precision="I64">
					<dim>4</dim>
				</port>
			</input>
			<output>
				<port id="2" precision="I64" names="360">
					<dim>-1</dim>
					<dim>1</dim>
					<dim>-1</dim>
					<dim>-1</dim>
				</port>
			</output>
		</layer>
		<layer id="168" name="__module.model/aten::to/Convert_1" type="Convert" version="opset1">
			<data destination_type="f32" />
			<input>
				<port id="0" precision="I64">
					<dim>-1</dim>
					<dim>1</dim>
					<dim>-1</dim>
					<dim>-1</dim>
				</port>
			</input>
			<output>
				<port id="1" precision="FP32" names="361">
					<dim>-1</dim>
					<dim>1</dim>
					<dim>-1</dim>
					<dim>-1</dim>
				</port>
			</output>
		</layer>
		<layer id="169" name="Constant_85592" type="Const" version="opset1">
			<data element_type="f32" shape="1, 1, 1, 1" offset="98621404" size="4" />
			<output>
				<port id="0" precision="FP32">
					<dim>1</dim>
					<dim>1</dim>
					<dim>1</dim>
					<dim>1</dim>
				</port>
			</output>
		</layer>
		<layer id="170" name="__module.model/aten::rsub/Multiply" type="Multiply" version="opset1">
			<data auto_broadcast="numpy" />
			<input>
				<port id="0" precision="FP32">
					<dim>-1</dim>
					<dim>1</dim>
					<dim>-1</dim>
					<dim>-1</dim>
				</port>
				<port id="1" precision="FP32">
					<dim>1</dim>
					<dim>1</dim>
					<dim>1</dim>
					<dim>1</dim>
				</port>
			</input>
			<output>
				<port id="2" precision="FP32">
					<dim>-1</dim>
					<dim>1</dim>
					<dim>-1</dim>
					<dim>-1</dim>
				</port>
			</output>
		</layer>
		<layer id="171" name="__module.model/aten::rsub/Subtract" type="Subtract" version="opset1">
			<data auto_broadcast="numpy" />
			<input>
				<port id="0" precision="FP32">
					<dim>1</dim>
					<dim>1</dim>
					<dim>1</dim>
					<dim>1</dim>
				</port>
				<port id="1" precision="FP32">
					<dim>-1</dim>
					<dim>1</dim>
					<dim>-1</dim>
					<dim>-1</dim>
				</port>
			</input>
			<output>
				<port id="2" precision="FP32" names="362,inverted_mask">
					<dim>-1</dim>
					<dim>1</dim>
					<dim>-1</dim>
					<dim>-1</dim>
				</port>
			</output>
		</layer>
		<layer id="172" name="__module.model/aten::to/Convert_2" type="Convert" version="opset1">
			<data destination_type="boolean" />
			<input>
				<port id="0" precision="FP32">
					<dim>-1</dim>
					<dim>1</dim>
					<dim>-1</dim>
					<dim>-1</dim>
				</port>
			</input>
			<output>
				<port id="1" precision="BOOL" names="363">
					<dim>-1</dim>
					<dim>1</dim>
					<dim>-1</dim>
					<dim>-1</dim>
				</port>
			</output>
		</layer>
		<layer id="173" name="231" type="Const" version="opset1">
			<data element_type="f32" shape="" offset="113330508" size="4" />
			<output>
				<port id="0" precision="FP32" names="231" />
			</output>
		</layer>
		<layer id="174" name="__module.model/aten::masked_fill/Select" type="Select" version="opset1">
			<data auto_broadcast="numpy" />
			<input>
				<port id="0" precision="BOOL">
					<dim>-1</dim>
					<dim>1</dim>
					<dim>-1</dim>
					<dim>-1</dim>
				</port>
				<port id="1" precision="FP32" />
				<port id="2" precision="FP32">
					<dim>-1</dim>
					<dim>1</dim>
					<dim>-1</dim>
					<dim>-1</dim>
				</port>
			</input>
			<output>
				<port id="3" precision="FP32" names="364,365,expanded_attn_mask">
					<dim>-1</dim>
					<dim>1</dim>
					<dim>-1</dim>
					<dim>-1</dim>
				</port>
			</output>
		</layer>
		<layer id="175" name="__module.model/aten::to/Convert_4" type="Convert" version="opset1">
			<data destination_type="boolean" />
			<input>
				<port id="0" precision="FP32">
					<dim>-1</dim>
					<dim>1</dim>
					<dim>-1</dim>
					<dim>-1</dim>
				</port>
			</input>
			<output>
				<port id="1" precision="BOOL" names="366">
					<dim>-1</dim>
					<dim>1</dim>
					<dim>-1</dim>
					<dim>-1</dim>
				</port>
			</output>
		</layer>
		<layer id="176" name="Constant_85595" type="Const" version="opset1">
			<data element_type="i64" shape="1, 1" offset="113330184" size="8" />
			<output>
				<port id="0" precision="I64">
					<dim>1</dim>
					<dim>1</dim>
				</port>
			</output>
		</layer>
		<layer id="177" name="__module.model/aten::triu/Constant" type="Const" version="opset1">
			<data element_type="i32" shape="" offset="0" size="4" />
			<output>
				<port id="0" precision="I32" />
			</output>
		</layer>
		<layer id="178" name="__module.model/aten::zeros/Constant" type="Const" version="opset1">
			<data element_type="f32" shape="" offset="0" size="4" />
			<output>
				<port id="0" precision="FP32" />
			</output>
		</layer>
		<layer id="179" name="ShapeOf_89455" type="ShapeOf" version="opset3">
			<data output_type="i64" />
			<input>
				<port id="0" precision="FP32">
					<dim>-1</dim>
					<dim>32</dim>
					<dim>-1</dim>
					<dim>96</dim>
				</port>
			</input>
			<output>
				<port id="1" precision="I64">
					<dim>4</dim>
				</port>
			</output>
		</layer>
		<layer id="180" name="Constant_89456" type="Const" version="opset1">
			<data element_type="i64" shape="" offset="113330192" size="8" />
			<output>
				<port id="0" precision="I64" />
			</output>
		</layer>
		<layer id="181" name="Constant_89457" type="Const" version="opset1">
			<data element_type="i64" shape="" offset="4" size="8" />
			<output>
				<port id="0" precision="I64" />
			</output>
		</layer>
		<layer id="182" name="Gather_89458" type="Gather" version="opset8">
			<data batch_dims="0" />
			<input>
				<port id="0" precision="I64">
					<dim>4</dim>
				</port>
				<port id="1" precision="I64" />
				<port id="2" precision="I64" />
			</input>
			<output>
				<port id="3" precision="I64" names="311" />
			</output>
		</layer>
		<layer id="183" name="__module.model/aten::add/Add" type="Add" version="opset1">
			<data auto_broadcast="numpy" />
			<input>
				<port id="0" precision="I64" />
				<port id="1" precision="I64" />
			</input>
			<output>
				<port id="2" precision="I64" names="318,key_value_length" />
			</output>
		</layer>
		<layer id="184" name="__module.model/aten::sub/Subtract" type="Subtract" version="opset1">
			<data auto_broadcast="numpy" />
			<input>
				<port id="0" precision="I64" />
				<port id="1" precision="I64" />
			</input>
			<output>
				<port id="2" precision="I64" names="320,321,past_key_values_length" />
			</output>
		</layer>
		<layer id="185" name="Constant_229" type="Const" version="opset1">
			<data element_type="i32" shape="" offset="0" size="4" />
			<output>
				<port id="0" precision="I32" />
			</output>
		</layer>
		<layer id="186" name="Unsqueeze_230" type="Unsqueeze" version="opset1">
			<input>
				<port id="0" precision="I64" />
				<port id="1" precision="I32" />
			</input>
			<output>
				<port id="2" precision="I64">
					<dim>1</dim>
				</port>
			</output>
		</layer>
		<layer id="187" name="__module.model/prim::ListConstruct_2" type="Concat" version="opset1">
			<data axis="0" />
			<input>
				<port id="0" precision="I64">
					<dim>1</dim>
				</port>
				<port id="1" precision="I64">
					<dim>1</dim>
				</port>
			</input>
			<output>
				<port id="2" precision="I64">
					<dim>2</dim>
				</port>
			</output>
		</layer>
		<layer id="188" name="__module.model/aten::zeros/Broadcast" type="Broadcast" version="opset3">
			<data mode="numpy" />
			<input>
				<port id="0" precision="FP32" />
				<port id="1" precision="I64">
					<dim>2</dim>
				</port>
			</input>
			<output>
				<port id="2" precision="FP32" names="334">
					<dim>-1</dim>
					<dim>-1</dim>
				</port>
			</output>
		</layer>
		<layer id="189" name="ShapeOf_89473" type="ShapeOf" version="opset3">
			<data output_type="i32" />
			<input>
				<port id="0" precision="FP32">
					<dim>-1</dim>
					<dim>-1</dim>
				</port>
			</input>
			<output>
				<port id="1" precision="I32">
					<dim>2</dim>
				</port>
			</output>
		</layer>
		<layer id="190" name="Constant_89474" type="Const" version="opset1">
			<data element_type="i64" shape="" offset="113330184" size="8" />
			<output>
				<port id="0" precision="I64" />
			</output>
		</layer>
		<layer id="191" name="Constant_89475" type="Const" version="opset1">
			<data element_type="i64" shape="" offset="4" size="8" />
			<output>
				<port id="0" precision="I64" />
			</output>
		</layer>
		<layer id="192" name="Gather_89476" type="Gather" version="opset8">
			<data batch_dims="0" />
			<input>
				<port id="0" precision="I32">
					<dim>2</dim>
				</port>
				<port id="1" precision="I64" />
				<port id="2" precision="I64" />
			</input>
			<output>
				<port id="3" precision="I32" />
			</output>
		</layer>
		<layer id="193" name="__module.model/aten::arange/Constant" type="Const" version="opset1">
			<data element_type="i32" shape="" offset="0" size="4" />
			<output>
				<port id="0" precision="I32" />
			</output>
		</layer>
		<layer id="194" name="__module.model/aten::arange/Constant_1" type="Const" version="opset1">
			<data element_type="i32" shape="" offset="113330512" size="4" />
			<output>
				<port id="0" precision="I32" />
			</output>
		</layer>
		<layer id="195" name="__module.model/aten::arange/Range" type="Range" version="opset4">
			<data output_type="f32" />
			<input>
				<port id="0" precision="I32" />
				<port id="1" precision="I64" />
				<port id="2" precision="I32" />
			</input>
			<output>
				<port id="3" precision="FP32">
					<dim>-1</dim>
				</port>
			</output>
		</layer>
		<layer id="196" name="__module.model/aten::arange/ConvertLike" type="Convert" version="opset1">
			<data destination_type="i64" />
			<input>
				<port id="0" precision="FP32">
					<dim>-1</dim>
				</port>
			</input>
			<output>
				<port id="1" precision="I64" names="325,mask_cond">
					<dim>-1</dim>
				</port>
			</output>
		</layer>
		<layer id="197" name="Constant_85594" type="Const" version="opset1">
			<data element_type="i64" shape="1" offset="113330184" size="8" />
			<output>
				<port id="0" precision="I64">
					<dim>1</dim>
				</port>
			</output>
		</layer>
		<layer id="198" name="__module.model/aten::add/Add_1" type="Add" version="opset1">
			<data auto_broadcast="numpy" />
			<input>
				<port id="0" precision="I64">
					<dim>-1</dim>
				</port>
				<port id="1" precision="I64">
					<dim>1</dim>
				</port>
			</input>
			<output>
				<port id="2" precision="I64" names="326">
					<dim>-1</dim>
				</port>
			</output>
		</layer>
		<layer id="199" name="Constant_92147" type="Const" version="opset1">
			<data element_type="i64" shape="2" offset="113330516" size="16" />
			<output>
				<port id="0" precision="I64">
					<dim>2</dim>
				</port>
			</output>
		</layer>
		<layer id="200" name="__module.model/aten::view/Reshape_1" type="Reshape" version="opset1">
			<data special_zero="true" />
			<input>
				<port id="0" precision="I64">
					<dim>-1</dim>
				</port>
				<port id="1" precision="I64">
					<dim>2</dim>
				</port>
			</input>
			<output>
				<port id="2" precision="I64" names="329">
					<dim>-1</dim>
					<dim>1</dim>
				</port>
			</output>
		</layer>
		<layer id="201" name="__module.model/aten::lt/Less" type="Less" version="opset1">
			<data auto_broadcast="numpy" />
			<input>
				<port id="0" precision="I64">
					<dim>-1</dim>
				</port>
				<port id="1" precision="I64">
					<dim>-1</dim>
					<dim>1</dim>
				</port>
			</input>
			<output>
				<port id="2" precision="BOOL" names="330">
					<dim>-1</dim>
					<dim>-1</dim>
				</port>
			</output>
		</layer>
		<layer id="202" name="__module.model/aten::masked_fill_/ConvertLike" type="Const" version="opset1">
			<data element_type="f32" shape="" offset="0" size="4" />
			<output>
				<port id="0" precision="FP32" />
			</output>
		</layer>
		<layer id="203" name="Constant_82141" type="Const" version="opset1">
			<data element_type="i32" shape="1" offset="113330532" size="4" />
			<output>
				<port id="0" precision="I32">
					<dim>1</dim>
				</port>
			</output>
		</layer>
		<layer id="204" name="__module.model/prim::ListConstruct_3" type="Broadcast" version="opset3">
			<data mode="numpy" />
			<input>
				<port id="0" precision="I64">
					<dim>1</dim>
				</port>
				<port id="1" precision="I32">
					<dim>1</dim>
				</port>
			</input>
			<output>
				<port id="2" precision="I64">
					<dim>2</dim>
				</port>
			</output>
		</layer>
		<layer id="205" name="__module.model/aten::full/Broadcast" type="Broadcast" version="opset3">
			<data mode="numpy" />
			<input>
				<port id="0" precision="FP32" />
				<port id="1" precision="I64">
					<dim>2</dim>
				</port>
			</input>
			<output>
				<port id="2" precision="FP32" names="323_1">
					<dim>-1</dim>
					<dim>-1</dim>
				</port>
			</output>
		</layer>
		<layer id="206" name="__module.model/aten::masked_fill_/Select" type="Select" version="opset1">
			<data auto_broadcast="numpy" />
			<input>
				<port id="0" precision="BOOL">
					<dim>-1</dim>
					<dim>-1</dim>
				</port>
				<port id="1" precision="FP32" />
				<port id="2" precision="FP32">
					<dim>-1</dim>
					<dim>-1</dim>
				</port>
			</input>
			<output>
				<port id="3" precision="FP32" names="323,332,mask.1">
					<dim>-1</dim>
					<dim>-1</dim>
				</port>
			</output>
		</layer>
		<layer id="207" name="ShapeOf_89477" type="ShapeOf" version="opset3">
			<data output_type="i32" />
			<input>
				<port id="0" precision="FP32">
					<dim>-1</dim>
					<dim>-1</dim>
				</port>
			</input>
			<output>
				<port id="1" precision="I32">
					<dim>2</dim>
				</port>
			</output>
		</layer>
		<layer id="208" name="Constant_89478" type="Const" version="opset1">
			<data element_type="i64" shape="" offset="113330184" size="8" />
			<output>
				<port id="0" precision="I64" />
			</output>
		</layer>
		<layer id="209" name="Constant_89479" type="Const" version="opset1">
			<data element_type="i64" shape="" offset="4" size="8" />
			<output>
				<port id="0" precision="I64" />
			</output>
		</layer>
		<layer id="210" name="Gather_89480" type="Gather" version="opset8">
			<data batch_dims="0" />
			<input>
				<port id="0" precision="I32">
					<dim>2</dim>
				</port>
				<port id="1" precision="I64" />
				<port id="2" precision="I64" />
			</input>
			<output>
				<port id="3" precision="I32" />
			</output>
		</layer>
		<layer id="211" name="Add_89481" type="Add" version="opset1">
			<data auto_broadcast="numpy" />
			<input>
				<port id="0" precision="I32" />
				<port id="1" precision="I32" />
			</input>
			<output>
				<port id="2" precision="I32" />
			</output>
		</layer>
		<layer id="212" name="__module.model/aten::triu/Constant_2" type="Const" version="opset1">
			<data element_type="i32" shape="" offset="113330512" size="4" />
			<output>
				<port id="0" precision="I32" />
			</output>
		</layer>
		<layer id="213" name="__module.model/aten::triu/Range" type="Range" version="opset4">
			<data output_type="i32" />
			<input>
				<port id="0" precision="I32" />
				<port id="1" precision="I32" />
				<port id="2" precision="I32" />
			</input>
			<output>
				<port id="3" precision="I32">
					<dim>-1</dim>
				</port>
			</output>
		</layer>
		<layer id="214" name="__module.model/aten::triu/Unsqueeze" type="Unsqueeze" version="opset1">
			<input>
				<port id="0" precision="I32">
					<dim>-1</dim>
				</port>
				<port id="1" precision="I32" />
			</input>
			<output>
				<port id="2" precision="I32">
					<dim>1</dim>
					<dim>-1</dim>
				</port>
			</output>
		</layer>
		<layer id="215" name="Constant_84514" type="Const" version="opset1">
			<data element_type="i64" shape="" offset="113330536" size="8" />
			<output>
				<port id="0" precision="I64" />
			</output>
		</layer>
		<layer id="216" name="__module.model/aten::add/Add_2" type="Add" version="opset1">
			<data auto_broadcast="numpy" />
			<input>
				<port id="0" precision="I64" />
				<port id="1" precision="I64" />
			</input>
			<output>
				<port id="2" precision="I64" names="338,339" />
			</output>
		</layer>
		<layer id="217" name="__module.model/aten::triu/Convert" type="Convert" version="opset1">
			<data destination_type="i32" />
			<input>
				<port id="0" precision="I64" />
			</input>
			<output>
				<port id="1" precision="I32" />
			</output>
		</layer>
		<layer id="218" name="Convert_89550" type="Convert" version="opset1">
			<data destination_type="i32" />
			<input>
				<port id="0" precision="I64" />
			</input>
			<output>
				<port id="1" precision="I32" />
			</output>
		</layer>
		<layer id="219" name="__module.model/aten::triu/Add" type="Add" version="opset1">
			<data auto_broadcast="numpy" />
			<input>
				<port id="0" precision="I32" />
				<port id="1" precision="I32" />
			</input>
			<output>
				<port id="2" precision="I32" />
			</output>
		</layer>
		<layer id="220" name="__module.model/aten::triu/Range_1" type="Range" version="opset4">
			<data output_type="i32" />
			<input>
				<port id="0" precision="I32" />
				<port id="1" precision="I32" />
				<port id="2" precision="I32" />
			</input>
			<output>
				<port id="3" precision="I32">
					<dim>-1</dim>
				</port>
			</output>
		</layer>
		<layer id="221" name="__module.model/aten::triu/Unsqueeze_1" type="Unsqueeze" version="opset1">
			<input>
				<port id="0" precision="I32">
					<dim>-1</dim>
				</port>
				<port id="1" precision="I32" />
			</input>
			<output>
				<port id="2" precision="I32">
					<dim>-1</dim>
					<dim>1</dim>
				</port>
			</output>
		</layer>
		<layer id="222" name="__module.model/aten::triu/GreaterEqual" type="GreaterEqual" version="opset1">
			<data auto_broadcast="numpy" />
			<input>
				<port id="0" precision="I32">
					<dim>1</dim>
					<dim>-1</dim>
				</port>
				<port id="1" precision="I32">
					<dim>-1</dim>
					<dim>1</dim>
				</port>
			</input>
			<output>
				<port id="2" precision="BOOL">
					<dim>-1</dim>
					<dim>-1</dim>
				</port>
			</output>
		</layer>
		<layer id="223" name="__module.model/aten::ones_like/Convert" type="Const" version="opset1">
			<data element_type="i64" shape="" offset="113330184" size="8" />
			<output>
				<port id="0" precision="I64" />
			</output>
		</layer>
		<layer id="224" name="__module.model/aten::cat/Concat" type="Concat" version="opset1">
			<data axis="-1" />
			<input>
				<port id="0" precision="FP32">
					<dim>-1</dim>
					<dim>-1</dim>
				</port>
				<port id="1" precision="FP32">
					<dim>-1</dim>
					<dim>-1</dim>
				</port>
			</input>
			<output>
				<port id="2" precision="FP32" names="336_1">
					<dim>-1</dim>
					<dim>-1</dim>
				</port>
			</output>
		</layer>
		<layer id="225" name="__module.model/aten::ones_like/ShapeOf" type="ShapeOf" version="opset3">
			<data output_type="i32" />
			<input>
				<port id="0" precision="FP32">
					<dim>-1</dim>
					<dim>-1</dim>
				</port>
			</input>
			<output>
				<port id="1" precision="I32">
					<dim>2</dim>
				</port>
			</output>
		</layer>
		<layer id="226" name="__module.model/aten::ones_like/Broadcast" type="Broadcast" version="opset3">
			<data mode="numpy" />
			<input>
				<port id="0" precision="I64" />
				<port id="1" precision="I32">
					<dim>2</dim>
				</port>
			</input>
			<output>
				<port id="2" precision="I64" names="340">
					<dim>-1</dim>
					<dim>-1</dim>
				</port>
			</output>
		</layer>
		<layer id="227" name="__module.model/aten::triu/ConvertLike" type="Const" version="opset1">
			<data element_type="i64" shape="" offset="4" size="8" />
			<output>
				<port id="0" precision="I64" />
			</output>
		</layer>
		<layer id="228" name="__module.model/aten::triu/Select" type="Select" version="opset1">
			<data auto_broadcast="numpy" />
			<input>
				<port id="0" precision="BOOL">
					<dim>-1</dim>
					<dim>-1</dim>
				</port>
				<port id="1" precision="I64">
					<dim>-1</dim>
					<dim>-1</dim>
				</port>
				<port id="2" precision="I64" />
			</input>
			<output>
				<port id="3" precision="I64" names="341">
					<dim>-1</dim>
					<dim>-1</dim>
				</port>
			</output>
		</layer>
		<layer id="229" name="__module.model/aten::rsub/Subtract_1" type="Subtract" version="opset1">
			<data auto_broadcast="numpy" />
			<input>
				<port id="0" precision="I64">
					<dim>1</dim>
					<dim>1</dim>
				</port>
				<port id="1" precision="I64">
					<dim>-1</dim>
					<dim>-1</dim>
				</port>
			</input>
			<output>
				<port id="2" precision="I64" names="342,context_mask">
					<dim>-1</dim>
					<dim>-1</dim>
				</port>
			</output>
		</layer>
		<layer id="230" name="__module.model/aten::to/Convert_6" type="Convert" version="opset1">
			<data destination_type="boolean" />
			<input>
				<port id="0" precision="I64">
					<dim>-1</dim>
					<dim>-1</dim>
				</port>
			</input>
			<output>
				<port id="1" precision="BOOL" names="343">
					<dim>-1</dim>
					<dim>-1</dim>
				</port>
			</output>
		</layer>
		<layer id="231" name="__module.model/aten::masked_fill_/Select_1" type="Select" version="opset1">
			<data auto_broadcast="numpy" />
			<input>
				<port id="0" precision="BOOL">
					<dim>-1</dim>
					<dim>-1</dim>
				</port>
				<port id="1" precision="FP32" />
				<port id="2" precision="FP32">
					<dim>-1</dim>
					<dim>-1</dim>
				</port>
			</input>
			<output>
				<port id="3" precision="FP32" names="336,mask.5">
					<dim>-1</dim>
					<dim>-1</dim>
				</port>
			</output>
		</layer>
		<layer id="232" name="232" type="Const" version="opset1">
			<data element_type="i64" shape="" offset="4" size="8" />
			<output>
				<port id="0" precision="I64" names="232" />
			</output>
		</layer>
		<layer id="233" name="__module.model/aten::unsqueeze/Unsqueeze_2" type="Unsqueeze" version="opset1">
			<input>
				<port id="0" precision="FP32">
					<dim>-1</dim>
					<dim>-1</dim>
				</port>
				<port id="1" precision="I64" />
			</input>
			<output>
				<port id="2" precision="FP32" names="345">
					<dim>1</dim>
					<dim>-1</dim>
					<dim>-1</dim>
				</port>
			</output>
		</layer>
		<layer id="234" name="__module.model/aten::unsqueeze/Unsqueeze_3" type="Unsqueeze" version="opset1">
			<input>
				<port id="0" precision="FP32">
					<dim>1</dim>
					<dim>-1</dim>
					<dim>-1</dim>
				</port>
				<port id="1" precision="I64" />
			</input>
			<output>
				<port id="2" precision="FP32" names="346,347,348">
					<dim>1</dim>
					<dim>1</dim>
					<dim>-1</dim>
					<dim>-1</dim>
				</port>
			</output>
		</layer>
		<layer id="235" name="Constant_75624" type="Const" version="opset1">
			<data element_type="i64" shape="1" offset="113330184" size="8" />
			<output>
				<port id="0" precision="I64">
					<dim>1</dim>
				</port>
			</output>
		</layer>
		<layer id="236" name="__module.model/aten::add/Add_3" type="Add" version="opset1">
			<data auto_broadcast="numpy" />
			<input>
				<port id="0" precision="I64">
					<dim>1</dim>
				</port>
				<port id="1" precision="I64">
					<dim>1</dim>
				</port>
			</input>
			<output>
				<port id="2" precision="I64" names="349,350">
					<dim>1</dim>
				</port>
			</output>
		</layer>
		<layer id="237" name="__module.model/prim::ListConstruct_5" type="Concat" version="opset1">
			<data axis="0" />
			<input>
				<port id="0" precision="I64">
					<dim>1</dim>
				</port>
				<port id="1" precision="I64">
					<dim>1</dim>
				</port>
				<port id="2" precision="I64">
					<dim>1</dim>
				</port>
				<port id="3" precision="I64">
					<dim>1</dim>
				</port>
			</input>
			<output>
				<port id="4" precision="I64">
					<dim>4</dim>
				</port>
			</output>
		</layer>
		<layer id="238" name="__module.model/aten::expand/Broadcast_1" type="Broadcast" version="opset3">
			<data mode="bidirectional" />
			<input>
				<port id="0" precision="FP32">
					<dim>1</dim>
					<dim>1</dim>
					<dim>-1</dim>
					<dim>-1</dim>
				</port>
				<port id="1" precision="I64">
					<dim>4</dim>
				</port>
			</input>
			<output>
				<port id="2" precision="FP32" names="352,causal_4d_mask">
					<dim>-1</dim>
					<dim>1</dim>
					<dim>-1</dim>
					<dim>-1</dim>
				</port>
			</output>
		</layer>
		<layer id="239" name="__module.model/aten::masked_fill/Select_1" type="Select" version="opset1">
			<data auto_broadcast="numpy" />
			<input>
				<port id="0" precision="BOOL">
					<dim>-1</dim>
					<dim>1</dim>
					<dim>-1</dim>
					<dim>-1</dim>
				</port>
				<port id="1" precision="FP32" />
				<port id="2" precision="FP32">
					<dim>-1</dim>
					<dim>1</dim>
					<dim>-1</dim>
					<dim>-1</dim>
				</port>
			</input>
			<output>
				<port id="3" precision="FP32" names="1129,1130,1131,1290,1291,1292,1451,1452,1453,1612,1613,1614,1773,1774,1775,1934,1935,1936,2095,2096,2097,2256,2257,2258,2417,2418,2419,2578,2579,2580,2739,2740,2741,2900,2901,2902,3061,3062,3063,3222,3223,3224,3383,3384,3385,3544,3545,3546,367,3705,3706,3707,3866,3867,3868,4027,4028,4029,4188,4189,4190,4349,4350,4351,4510,4511,4512,4671,4672,4673,4832,4833,4834,485,486,487,4993,4994,4995,5154,5155,5156,5315,5316,5317,5476,5477,5478,646,647,648,807,808,809,968,969,970,attention_mask">
					<dim>-1</dim>
					<dim>1</dim>
					<dim>-1</dim>
					<dim>-1</dim>
				</port>
			</output>
		</layer>
		<layer id="240" name="Constant_1241" type="Const" version="opset1">
			<data element_type="i64" shape="1" offset="4" size="8" />
			<output>
				<port id="0" precision="I64">
					<dim>1</dim>
				</port>
			</output>
		</layer>
		<layer id="241" name="Constant_89559" type="Const" version="opset1">
			<data element_type="i64" shape="1" offset="113330184" size="8" />
			<output>
				<port id="0" precision="I64">
					<dim>1</dim>
				</port>
			</output>
		</layer>
		<layer id="242" name="Reshape_89560" type="Reshape" version="opset1">
			<data special_zero="false" />
			<input>
				<port id="0" precision="I64" />
				<port id="1" precision="I64">
					<dim>1</dim>
				</port>
			</input>
			<output>
				<port id="2" precision="I64">
					<dim>1</dim>
				</port>
			</output>
		</layer>
		<layer id="243" name="Add_89563" type="Add" version="opset1">
			<data auto_broadcast="numpy" />
			<input>
				<port id="0" precision="I64">
					<dim>1</dim>
				</port>
				<port id="1" precision="I64">
					<dim>1</dim>
				</port>
			</input>
			<output>
				<port id="2" precision="I64" names="1128,1289,1450,1611,1772,1933,2094,2255,2416,2577,2738,2899,3060,3221,3382,3543,3704,3865,4026,4187,4348,4509,4670,4831,484,4992,5153,5314,5475,645,806,967">
					<dim>1</dim>
				</port>
			</output>
		</layer>
		<layer id="244" name="Constant_1244" type="Const" version="opset1">
			<data element_type="i64" shape="1" offset="113330184" size="8" />
			<output>
				<port id="0" precision="I64">
					<dim>1</dim>
				</port>
			</output>
		</layer>
		<layer id="245" name="__module.model.layers.0.self_attn/aten::slice/Slice_10" type="Slice" version="opset8">
			<input>
				<port id="0" precision="FP32">
					<dim>-1</dim>
					<dim>1</dim>
					<dim>-1</dim>
					<dim>-1</dim>
				</port>
				<port id="1" precision="I64">
					<dim>1</dim>
				</port>
				<port id="2" precision="I64">
					<dim>1</dim>
				</port>
				<port id="3" precision="I64">
					<dim>1</dim>
				</port>
				<port id="4" precision="I64">
					<dim>1</dim>
				</port>
			</input>
			<output>
				<port id="5" precision="FP32" names="1132,1293,1454,1615,1776,1937,2098,2259,2420,2581,2742,2903,3064,3225,3386,3547,3708,3869,4030,4191,4352,4513,4674,4835,488,4996,5157,5318,5479,649,810,971">
					<dim>-1</dim>
					<dim>1</dim>
					<dim>-1</dim>
					<dim>-1</dim>
				</port>
			</output>
		</layer>
		<layer id="246" name="__module.model.layers.0.self_attn/aten::scaled_dot_product_attention/ScaledDotProductAttention" type="ScaledDotProductAttention" version="opset13">
			<data causal="false" />
			<input>
				<port id="0" precision="FP32">
					<dim>-1</dim>
					<dim>32</dim>
					<dim>-1</dim>
					<dim>96</dim>
				</port>
				<port id="1" precision="FP32">
					<dim>-1</dim>
					<dim>32</dim>
					<dim>-1</dim>
					<dim>96</dim>
				</port>
				<port id="2" precision="FP32">
					<dim>-1</dim>
					<dim>32</dim>
					<dim>-1</dim>
					<dim>96</dim>
				</port>
				<port id="3" precision="FP32">
					<dim>-1</dim>
					<dim>1</dim>
					<dim>-1</dim>
					<dim>-1</dim>
				</port>
			</input>
			<output>
				<port id="4" precision="FP32" names="489,attn_output.1">
					<dim>-1</dim>
					<dim>32</dim>
					<dim>-1</dim>
					<dim>96</dim>
				</port>
			</output>
		</layer>
		<layer id="247" name="__module.model.layers.0.self_attn/aten::transpose/Constant_3" type="Const" version="opset1">
			<data element_type="i32" shape="4" offset="113330232" size="16" />
			<output>
				<port id="0" precision="I32">
					<dim>4</dim>
				</port>
			</output>
		</layer>
		<layer id="248" name="__module.model.layers.0.self_attn/aten::transpose/Transpose_3" type="Transpose" version="opset1">
			<input>
				<port id="0" precision="FP32">
					<dim>-1</dim>
					<dim>32</dim>
					<dim>-1</dim>
					<dim>96</dim>
				</port>
				<port id="1" precision="I32">
					<dim>4</dim>
				</port>
			</input>
			<output>
				<port id="2" precision="FP32" names="490">
					<dim>-1</dim>
					<dim>-1</dim>
					<dim>32</dim>
					<dim>96</dim>
				</port>
			</output>
		</layer>
		<layer id="249" name="Constant_92148" type="Const" version="opset1">
			<data element_type="i64" shape="3" offset="113330544" size="24" />
			<output>
				<port id="0" precision="I64">
					<dim>3</dim>
				</port>
			</output>
		</layer>
		<layer id="250" name="__module.model.layers.0.self_attn/aten::view/Reshape_3" type="Reshape" version="opset1">
			<data special_zero="true" />
			<input>
				<port id="0" precision="FP32">
					<dim>-1</dim>
					<dim>-1</dim>
					<dim>32</dim>
					<dim>96</dim>
				</port>
				<port id="1" precision="I64">
					<dim>3</dim>
				</port>
			</input>
			<output>
				<port id="2" precision="FP32" names="493,a.1">
					<dim>-1</dim>
					<dim>-1</dim>
					<dim>3072</dim>
				</port>
			</output>
		</layer>
		<layer id="251" name="self.model.layers.0.self_attn.o_proj.weight" type="Const" version="opset1">
			<data element_type="u4" shape="3072, 24, 128" offset="113330568" size="4718592" />
			<output>
				<port id="0" precision="U4">
					<dim>3072</dim>
					<dim>24</dim>
					<dim>128</dim>
				</port>
			</output>
		</layer>
		<layer id="252" name="Convert_115572" type="Convert" version="opset1">
			<data destination_type="f16" />
			<input>
				<port id="0" precision="U4">
					<dim>3072</dim>
					<dim>24</dim>
					<dim>128</dim>
				</port>
			</input>
			<output>
				<port id="1" precision="FP16">
					<dim>3072</dim>
					<dim>24</dim>
					<dim>128</dim>
				</port>
			</output>
		</layer>
		<layer id="253" name="self.model.layers.0.self_attn.o_proj.weight/zero_point" type="Const" version="opset1">
			<data element_type="u4" shape="3072, 24, 1" offset="118049160" size="36864" />
			<output>
				<port id="0" precision="U4">
					<dim>3072</dim>
					<dim>24</dim>
					<dim>1</dim>
				</port>
			</output>
		</layer>
		<layer id="254" name="Convert_115574" type="Convert" version="opset1">
			<data destination_type="f16" />
			<input>
				<port id="0" precision="U4">
					<dim>3072</dim>
					<dim>24</dim>
					<dim>1</dim>
				</port>
			</input>
			<output>
				<port id="1" precision="FP16">
					<dim>3072</dim>
					<dim>24</dim>
					<dim>1</dim>
				</port>
			</output>
		</layer>
		<layer id="255" name="self.model.layers.0.self_attn.o_proj.weight/zero_point/subtract" type="Subtract" version="opset1">
			<data auto_broadcast="numpy" />
			<input>
				<port id="0" precision="FP16">
					<dim>3072</dim>
					<dim>24</dim>
					<dim>128</dim>
				</port>
				<port id="1" precision="FP16">
					<dim>3072</dim>
					<dim>24</dim>
					<dim>1</dim>
				</port>
			</input>
			<output>
				<port id="2" precision="FP16">
					<dim>3072</dim>
					<dim>24</dim>
					<dim>128</dim>
				</port>
			</output>
		</layer>
		<layer id="256" name="self.model.layers.0.self_attn.o_proj.weight/scale" type="Const" version="opset1">
			<data element_type="f16" shape="3072, 24, 1" offset="118086024" size="147456" />
			<output>
				<port id="0" precision="FP16">
					<dim>3072</dim>
					<dim>24</dim>
					<dim>1</dim>
				</port>
			</output>
		</layer>
		<layer id="257" name="self.model.layers.0.self_attn.o_proj.weight/fq_weights_1" type="Multiply" version="opset1">
			<data auto_broadcast="numpy" />
			<input>
				<port id="0" precision="FP16">
					<dim>3072</dim>
					<dim>24</dim>
					<dim>128</dim>
				</port>
				<port id="1" precision="FP16">
					<dim>3072</dim>
					<dim>24</dim>
					<dim>1</dim>
				</port>
			</input>
			<output>
				<port id="2" precision="FP16">
					<dim>3072</dim>
					<dim>24</dim>
					<dim>128</dim>
				</port>
			</output>
		</layer>
		<layer id="258" name="Constant_115579" type="Const" version="opset1">
			<data element_type="i64" shape="2" offset="118233480" size="16" />
			<output>
				<port id="0" precision="I64">
					<dim>2</dim>
				</port>
			</output>
		</layer>
		<layer id="259" name="Reshape_115580" type="Reshape" version="opset1">
			<data special_zero="false" />
			<input>
				<port id="0" precision="FP16">
					<dim>3072</dim>
					<dim>24</dim>
					<dim>128</dim>
				</port>
				<port id="1" precision="I64">
					<dim>2</dim>
				</port>
			</input>
			<output>
				<port id="2" precision="FP16">
					<dim>3072</dim>
					<dim>3072</dim>
				</port>
			</output>
		</layer>
		<layer id="260" name="__module.model.layers.0.self_attn.o_proj/ov_ext::linear/ConvertLike" type="Convert" version="opset1">
			<data destination_type="f32" />
			<rt_info>
				<attribute name="decompression" version="0" />
			</rt_info>
			<input>
				<port id="0" precision="FP16">
					<dim>3072</dim>
					<dim>3072</dim>
				</port>
			</input>
			<output>
				<port id="1" precision="FP32">
					<dim>3072</dim>
					<dim>3072</dim>
				</port>
			</output>
		</layer>
		<layer id="261" name="__module.model.layers.0.self_attn.o_proj/ov_ext::linear/MatMul" type="MatMul" version="opset1">
			<data transpose_a="false" transpose_b="true" />
			<input>
				<port id="0" precision="FP32">
					<dim>-1</dim>
					<dim>-1</dim>
					<dim>3072</dim>
				</port>
				<port id="1" precision="FP32">
					<dim>3072</dim>
					<dim>3072</dim>
				</port>
			</input>
			<output>
				<port id="2" precision="FP32" names="495,497,input.1">
					<dim>-1</dim>
					<dim>-1</dim>
					<dim>3072</dim>
				</port>
			</output>
		</layer>
		<layer id="262" name="__module.model.layers.0/aten::add/Add" type="Add" version="opset1">
			<data auto_broadcast="numpy" />
			<input>
				<port id="0" precision="FP32">
					<dim>-1</dim>
					<dim>-1</dim>
					<dim>3072</dim>
				</port>
				<port id="1" precision="FP32">
					<dim>-1</dim>
					<dim>-1</dim>
					<dim>3072</dim>
				</port>
			</input>
			<output>
				<port id="2" precision="FP32" names="501,503,514,hidden_states.15,hidden_states.17">
					<dim>-1</dim>
					<dim>-1</dim>
					<dim>3072</dim>
				</port>
			</output>
		</layer>
		<layer id="263" name="Constant_85599" type="Const" version="opset1">
			<data element_type="f32" shape="1, 1, 3072" offset="118233496" size="12288" />
			<output>
				<port id="0" precision="FP32">
					<dim>1</dim>
					<dim>1</dim>
					<dim>3072</dim>
				</port>
			</output>
		</layer>
		<layer id="264" name="Constant_85598" type="Const" version="opset1">
			<data element_type="f32" shape="1, 1, 1" offset="98621404" size="4" />
			<output>
				<port id="0" precision="FP32">
					<dim>1</dim>
					<dim>1</dim>
					<dim>1</dim>
				</port>
			</output>
		</layer>
		<layer id="265" name="Constant_85596" type="Const" version="opset1">
			<data element_type="f32" shape="1, 1, 1" offset="98621408" size="4" />
			<output>
				<port id="0" precision="FP32">
					<dim>1</dim>
					<dim>1</dim>
					<dim>1</dim>
				</port>
			</output>
		</layer>
		<layer id="266" name="__module.model.layers.0.post_attention_layernorm/aten::pow/Power" type="Power" version="opset1">
			<data auto_broadcast="numpy" />
			<input>
				<port id="0" precision="FP32">
					<dim>-1</dim>
					<dim>-1</dim>
					<dim>3072</dim>
				</port>
				<port id="1" precision="FP32">
					<dim>1</dim>
					<dim>1</dim>
					<dim>1</dim>
				</port>
			</input>
			<output>
				<port id="2" precision="FP32" names="504">
					<dim>-1</dim>
					<dim>-1</dim>
					<dim>3072</dim>
				</port>
			</output>
		</layer>
		<layer id="267" name="Constant_1346" type="Const" version="opset1">
			<data element_type="i64" shape="1" offset="98621412" size="8" />
			<output>
				<port id="0" precision="I64" names="505">
					<dim>1</dim>
				</port>
			</output>
		</layer>
		<layer id="268" name="__module.model.layers.0.post_attention_layernorm/aten::mean/ReduceMean" type="ReduceMean" version="opset1">
			<data keep_dims="true" />
			<input>
				<port id="0" precision="FP32">
					<dim>-1</dim>
					<dim>-1</dim>
					<dim>3072</dim>
				</port>
				<port id="1" precision="I64">
					<dim>1</dim>
				</port>
			</input>
			<output>
				<port id="2" precision="FP32" names="506,variance.3">
					<dim>-1</dim>
					<dim>-1</dim>
					<dim>1</dim>
				</port>
			</output>
		</layer>
		<layer id="269" name="Constant_85597" type="Const" version="opset1">
			<data element_type="f32" shape="1, 1, 1" offset="98621420" size="4" />
			<output>
				<port id="0" precision="FP32">
					<dim>1</dim>
					<dim>1</dim>
					<dim>1</dim>
				</port>
			</output>
		</layer>
		<layer id="270" name="__module.model.layers.0.post_attention_layernorm/aten::add/Add" type="Add" version="opset1">
			<data auto_broadcast="numpy" />
			<input>
				<port id="0" precision="FP32">
					<dim>-1</dim>
					<dim>-1</dim>
					<dim>1</dim>
				</port>
				<port id="1" precision="FP32">
					<dim>1</dim>
					<dim>1</dim>
					<dim>1</dim>
				</port>
			</input>
			<output>
				<port id="2" precision="FP32" names="507">
					<dim>-1</dim>
					<dim>-1</dim>
					<dim>1</dim>
				</port>
			</output>
		</layer>
		<layer id="271" name="__module.model.layers.0.post_attention_layernorm/aten::rsqrt/Sqrt" type="Sqrt" version="opset1">
			<input>
				<port id="0" precision="FP32">
					<dim>-1</dim>
					<dim>-1</dim>
					<dim>1</dim>
				</port>
			</input>
			<output>
				<port id="1" precision="FP32">
					<dim>-1</dim>
					<dim>-1</dim>
					<dim>1</dim>
				</port>
			</output>
		</layer>
		<layer id="272" name="__module.model.layers.0.post_attention_layernorm/aten::rsqrt/Divide" type="Divide" version="opset1">
			<data auto_broadcast="numpy" m_pythondiv="true" />
			<input>
				<port id="0" precision="FP32">
					<dim>1</dim>
					<dim>1</dim>
					<dim>1</dim>
				</port>
				<port id="1" precision="FP32">
					<dim>-1</dim>
					<dim>-1</dim>
					<dim>1</dim>
				</port>
			</input>
			<output>
				<port id="2" precision="FP32" names="508">
					<dim>-1</dim>
					<dim>-1</dim>
					<dim>1</dim>
				</port>
			</output>
		</layer>
		<layer id="273" name="__module.model.layers.0.post_attention_layernorm/aten::mul/Multiply" type="Multiply" version="opset1">
			<data auto_broadcast="numpy" />
			<input>
				<port id="0" precision="FP32">
					<dim>-1</dim>
					<dim>-1</dim>
					<dim>3072</dim>
				</port>
				<port id="1" precision="FP32">
					<dim>-1</dim>
					<dim>-1</dim>
					<dim>1</dim>
				</port>
			</input>
			<output>
				<port id="2" precision="FP32" names="509,510,hidden_states.19,hidden_states.21">
					<dim>-1</dim>
					<dim>-1</dim>
					<dim>3072</dim>
				</port>
			</output>
		</layer>
		<layer id="274" name="__module.model.layers.0.post_attention_layernorm/aten::mul/Multiply_1" type="Multiply" version="opset1">
			<data auto_broadcast="numpy" />
			<input>
				<port id="0" precision="FP32">
					<dim>1</dim>
					<dim>1</dim>
					<dim>3072</dim>
				</port>
				<port id="1" precision="FP32">
					<dim>-1</dim>
					<dim>-1</dim>
					<dim>3072</dim>
				</port>
			</input>
			<output>
				<port id="2" precision="FP32" names="511,513,a.3">
					<dim>-1</dim>
					<dim>-1</dim>
					<dim>3072</dim>
				</port>
			</output>
		</layer>
		<layer id="275" name="self.model.layers.0.mlp.gate_up_proj.weight" type="Const" version="opset1">
			<data element_type="u4" shape="16384, 24, 128" offset="118245784" size="25165824" />
			<output>
				<port id="0" precision="U4">
					<dim>16384</dim>
					<dim>24</dim>
					<dim>128</dim>
				</port>
			</output>
		</layer>
		<layer id="276" name="Convert_114612" type="Convert" version="opset1">
			<data destination_type="f16" />
			<input>
				<port id="0" precision="U4">
					<dim>16384</dim>
					<dim>24</dim>
					<dim>128</dim>
				</port>
			</input>
			<output>
				<port id="1" precision="FP16">
					<dim>16384</dim>
					<dim>24</dim>
					<dim>128</dim>
				</port>
			</output>
		</layer>
		<layer id="277" name="self.model.layers.0.mlp.gate_up_proj.weight/zero_point" type="Const" version="opset1">
			<data element_type="u4" shape="16384, 24, 1" offset="143411608" size="196608" />
			<output>
				<port id="0" precision="U4">
					<dim>16384</dim>
					<dim>24</dim>
					<dim>1</dim>
				</port>
			</output>
		</layer>
		<layer id="278" name="Convert_114614" type="Convert" version="opset1">
			<data destination_type="f16" />
			<input>
				<port id="0" precision="U4">
					<dim>16384</dim>
					<dim>24</dim>
					<dim>1</dim>
				</port>
			</input>
			<output>
				<port id="1" precision="FP16">
					<dim>16384</dim>
					<dim>24</dim>
					<dim>1</dim>
				</port>
			</output>
		</layer>
		<layer id="279" name="self.model.layers.0.mlp.gate_up_proj.weight/zero_point/subtract" type="Subtract" version="opset1">
			<data auto_broadcast="numpy" />
			<input>
				<port id="0" precision="FP16">
					<dim>16384</dim>
					<dim>24</dim>
					<dim>128</dim>
				</port>
				<port id="1" precision="FP16">
					<dim>16384</dim>
					<dim>24</dim>
					<dim>1</dim>
				</port>
			</input>
			<output>
				<port id="2" precision="FP16">
					<dim>16384</dim>
					<dim>24</dim>
					<dim>128</dim>
				</port>
			</output>
		</layer>
		<layer id="280" name="self.model.layers.0.mlp.gate_up_proj.weight/scale" type="Const" version="opset1">
			<data element_type="f16" shape="16384, 24, 1" offset="143608216" size="786432" />
			<output>
				<port id="0" precision="FP16">
					<dim>16384</dim>
					<dim>24</dim>
					<dim>1</dim>
				</port>
			</output>
		</layer>
		<layer id="281" name="self.model.layers.0.mlp.gate_up_proj.weight/fq_weights_1" type="Multiply" version="opset1">
			<data auto_broadcast="numpy" />
			<input>
				<port id="0" precision="FP16">
					<dim>16384</dim>
					<dim>24</dim>
					<dim>128</dim>
				</port>
				<port id="1" precision="FP16">
					<dim>16384</dim>
					<dim>24</dim>
					<dim>1</dim>
				</port>
			</input>
			<output>
				<port id="2" precision="FP16">
					<dim>16384</dim>
					<dim>24</dim>
					<dim>128</dim>
				</port>
			</output>
		</layer>
		<layer id="282" name="Constant_114619" type="Const" version="opset1">
			<data element_type="i64" shape="2" offset="144394648" size="16" />
			<output>
				<port id="0" precision="I64">
					<dim>2</dim>
				</port>
			</output>
		</layer>
		<layer id="283" name="Reshape_114620" type="Reshape" version="opset1">
			<data special_zero="false" />
			<input>
				<port id="0" precision="FP16">
					<dim>16384</dim>
					<dim>24</dim>
					<dim>128</dim>
				</port>
				<port id="1" precision="I64">
					<dim>2</dim>
				</port>
			</input>
			<output>
				<port id="2" precision="FP16">
					<dim>16384</dim>
					<dim>3072</dim>
				</port>
			</output>
		</layer>
		<layer id="284" name="__module.model.layers.0.mlp.gate_up_proj/ov_ext::linear/ConvertLike" type="Convert" version="opset1">
			<data destination_type="f32" />
			<rt_info>
				<attribute name="decompression" version="0" />
			</rt_info>
			<input>
				<port id="0" precision="FP16">
					<dim>16384</dim>
					<dim>3072</dim>
				</port>
			</input>
			<output>
				<port id="1" precision="FP32">
					<dim>16384</dim>
					<dim>3072</dim>
				</port>
			</output>
		</layer>
		<layer id="285" name="__module.model.layers.0.mlp.gate_up_proj/ov_ext::linear/MatMul" type="MatMul" version="opset1">
			<data transpose_a="false" transpose_b="true" />
			<input>
				<port id="0" precision="FP32">
					<dim>-1</dim>
					<dim>-1</dim>
					<dim>3072</dim>
				</port>
				<port id="1" precision="FP32">
					<dim>16384</dim>
					<dim>3072</dim>
				</port>
			</input>
			<output>
				<port id="2" precision="FP32" names="518,up_states.1">
					<dim>-1</dim>
					<dim>-1</dim>
					<dim>16384</dim>
				</port>
			</output>
		</layer>
		<layer id="286" name="236" type="Const" version="opset1">
			<data element_type="i64" shape="" offset="98621412" size="8" />
			<output>
				<port id="0" precision="I64" names="236" />
			</output>
		</layer>
		<layer id="287" name="__module.model.layers.0.mlp/prim::ListUnpack/ShapeOf" type="ShapeOf" version="opset3">
			<data output_type="i32" />
			<input>
				<port id="0" precision="FP32">
					<dim>-1</dim>
					<dim>-1</dim>
					<dim>16384</dim>
				</port>
			</input>
			<output>
				<port id="1" precision="I32">
					<dim>3</dim>
				</port>
			</output>
		</layer>
		<layer id="288" name="Constant_35376" type="Const" version="opset1">
			<data element_type="i32" shape="1" offset="0" size="4" />
			<output>
				<port id="0" precision="I32">
					<dim>1</dim>
				</port>
			</output>
		</layer>
		<layer id="289" name="__module.model.layers.0.mlp/prim::ListUnpack/Gather" type="Gather" version="opset8">
			<data batch_dims="0" />
			<input>
				<port id="0" precision="I32">
					<dim>3</dim>
				</port>
				<port id="1" precision="I64" />
				<port id="2" precision="I32">
					<dim>1</dim>
				</port>
			</input>
			<output>
				<port id="3" precision="I32" />
			</output>
		</layer>
		<layer id="290" name="__module.model.layers.0.mlp/prim::ListUnpack/Convert" type="Const" version="opset1">
			<data element_type="i32" shape="" offset="113330532" size="4" />
			<output>
				<port id="0" precision="I32" />
			</output>
		</layer>
		<layer id="291" name="__module.model.layers.0.mlp/prim::ListUnpack/Divide" type="Divide" version="opset1">
			<data auto_broadcast="numpy" m_pythondiv="true" />
			<input>
				<port id="0" precision="I32" />
				<port id="1" precision="I32" />
			</input>
			<output>
				<port id="2" precision="I32" />
			</output>
		</layer>
		<layer id="292" name="__module.model.layers.0.mlp/prim::ListUnpack/Mod" type="Mod" version="opset1">
			<data auto_broadcast="numpy" />
			<input>
				<port id="0" precision="I32" />
				<port id="1" precision="I32" />
			</input>
			<output>
				<port id="2" precision="I32" />
			</output>
		</layer>
		<layer id="293" name="__module.model.layers.0.mlp/prim::ListUnpack/Greater" type="Greater" version="opset1">
			<data auto_broadcast="numpy" />
			<input>
				<port id="0" precision="I32" />
				<port id="1" precision="I32">
					<dim>1</dim>
				</port>
			</input>
			<output>
				<port id="2" precision="BOOL">
					<dim>1</dim>
				</port>
			</output>
		</layer>
		<layer id="294" name="__module.model.layers.0.mlp/prim::ListUnpack/Convert_0" type="Convert" version="opset1">
			<data destination_type="i32" />
			<input>
				<port id="0" precision="BOOL">
					<dim>1</dim>
				</port>
			</input>
			<output>
				<port id="1" precision="I32">
					<dim>1</dim>
				</port>
			</output>
		</layer>
		<layer id="295" name="__module.model.layers.0.mlp/prim::ListUnpack/Add" type="Add" version="opset1">
			<data auto_broadcast="numpy" />
			<input>
				<port id="0" precision="I32" />
				<port id="1" precision="I32">
					<dim>1</dim>
				</port>
			</input>
			<output>
				<port id="2" precision="I32">
					<dim>1</dim>
				</port>
			</output>
		</layer>
		<layer id="296" name="Constant_35377" type="Const" version="opset1">
			<data element_type="i32" shape="1" offset="144394664" size="4" />
			<output>
				<port id="0" precision="I32">
					<dim>1</dim>
				</port>
			</output>
		</layer>
		<layer id="297" name="__module.model.layers.0.mlp/prim::ListUnpack/Concat" type="Concat" version="opset1">
			<data axis="0" />
			<input>
				<port id="0" precision="I32">
					<dim>1</dim>
				</port>
				<port id="1" precision="I32">
					<dim>1</dim>
				</port>
			</input>
			<output>
				<port id="2" precision="I32">
					<dim>2</dim>
				</port>
			</output>
		</layer>
		<layer id="298" name="__module.model.layers.0.mlp/prim::ListUnpack/VariadicSplit" type="VariadicSplit" version="opset1">
			<input>
				<port id="0" precision="FP32">
					<dim>-1</dim>
					<dim>-1</dim>
					<dim>16384</dim>
				</port>
				<port id="1" precision="I64" />
				<port id="2" precision="I32">
					<dim>2</dim>
				</port>
			</input>
			<output>
				<port id="3" precision="FP32" names="520,input.3">
					<dim>-1</dim>
					<dim>-1</dim>
					<dim>8192</dim>
				</port>
				<port id="4" precision="FP32" names="521,up_states.3">
					<dim>-1</dim>
					<dim>-1</dim>
					<dim>8192</dim>
				</port>
			</output>
		</layer>
		<layer id="299" name="__module.model.layers.0.mlp.activation_fn/aten::silu/Swish" type="Swish" version="opset4">
			<input>
				<port id="0" precision="FP32">
					<dim>-1</dim>
					<dim>-1</dim>
					<dim>8192</dim>
				</port>
			</input>
			<output>
				<port id="1" precision="FP32" names="522">
					<dim>-1</dim>
					<dim>-1</dim>
					<dim>8192</dim>
				</port>
			</output>
		</layer>
		<layer id="300" name="__module.model.layers.0.mlp/aten::mul/Multiply" type="Multiply" version="opset1">
			<data auto_broadcast="numpy" />
			<input>
				<port id="0" precision="FP32">
					<dim>-1</dim>
					<dim>-1</dim>
					<dim>8192</dim>
				</port>
				<port id="1" precision="FP32">
					<dim>-1</dim>
					<dim>-1</dim>
					<dim>8192</dim>
				</port>
			</input>
			<output>
				<port id="2" precision="FP32" names="523,a.5">
					<dim>-1</dim>
					<dim>-1</dim>
					<dim>8192</dim>
				</port>
			</output>
		</layer>
		<layer id="301" name="self.model.layers.0.mlp.down_proj.weight" type="Const" version="opset1">
			<data element_type="u4" shape="3072, 64, 128" offset="144394668" size="12582912" />
			<output>
				<port id="0" precision="U4">
					<dim>3072</dim>
					<dim>64</dim>
					<dim>128</dim>
				</port>
			</output>
		</layer>
		<layer id="302" name="Convert_115252" type="Convert" version="opset1">
			<data destination_type="f16" />
			<input>
				<port id="0" precision="U4">
					<dim>3072</dim>
					<dim>64</dim>
					<dim>128</dim>
				</port>
			</input>
			<output>
				<port id="1" precision="FP16">
					<dim>3072</dim>
					<dim>64</dim>
					<dim>128</dim>
				</port>
			</output>
		</layer>
		<layer id="303" name="self.model.layers.0.mlp.down_proj.weight/zero_point" type="Const" version="opset1">
			<data element_type="u4" shape="3072, 64, 1" offset="156977580" size="98304" />
			<output>
				<port id="0" precision="U4">
					<dim>3072</dim>
					<dim>64</dim>
					<dim>1</dim>
				</port>
			</output>
		</layer>
		<layer id="304" name="Convert_115254" type="Convert" version="opset1">
			<data destination_type="f16" />
			<input>
				<port id="0" precision="U4">
					<dim>3072</dim>
					<dim>64</dim>
					<dim>1</dim>
				</port>
			</input>
			<output>
				<port id="1" precision="FP16">
					<dim>3072</dim>
					<dim>64</dim>
					<dim>1</dim>
				</port>
			</output>
		</layer>
		<layer id="305" name="self.model.layers.0.mlp.down_proj.weight/zero_point/subtract" type="Subtract" version="opset1">
			<data auto_broadcast="numpy" />
			<input>
				<port id="0" precision="FP16">
					<dim>3072</dim>
					<dim>64</dim>
					<dim>128</dim>
				</port>
				<port id="1" precision="FP16">
					<dim>3072</dim>
					<dim>64</dim>
					<dim>1</dim>
				</port>
			</input>
			<output>
				<port id="2" precision="FP16">
					<dim>3072</dim>
					<dim>64</dim>
					<dim>128</dim>
				</port>
			</output>
		</layer>
		<layer id="306" name="self.model.layers.0.mlp.down_proj.weight/scale" type="Const" version="opset1">
			<data element_type="f16" shape="3072, 64, 1" offset="157075884" size="393216" />
			<output>
				<port id="0" precision="FP16">
					<dim>3072</dim>
					<dim>64</dim>
					<dim>1</dim>
				</port>
			</output>
		</layer>
		<layer id="307" name="self.model.layers.0.mlp.down_proj.weight/fq_weights_1" type="Multiply" version="opset1">
			<data auto_broadcast="numpy" />
			<input>
				<port id="0" precision="FP16">
					<dim>3072</dim>
					<dim>64</dim>
					<dim>128</dim>
				</port>
				<port id="1" precision="FP16">
					<dim>3072</dim>
					<dim>64</dim>
					<dim>1</dim>
				</port>
			</input>
			<output>
				<port id="2" precision="FP16">
					<dim>3072</dim>
					<dim>64</dim>
					<dim>128</dim>
				</port>
			</output>
		</layer>
		<layer id="308" name="Constant_115259" type="Const" version="opset1">
			<data element_type="i64" shape="2" offset="157469100" size="16" />
			<output>
				<port id="0" precision="I64">
					<dim>2</dim>
				</port>
			</output>
		</layer>
		<layer id="309" name="Reshape_115260" type="Reshape" version="opset1">
			<data special_zero="false" />
			<input>
				<port id="0" precision="FP16">
					<dim>3072</dim>
					<dim>64</dim>
					<dim>128</dim>
				</port>
				<port id="1" precision="I64">
					<dim>2</dim>
				</port>
			</input>
			<output>
				<port id="2" precision="FP16">
					<dim>3072</dim>
					<dim>8192</dim>
				</port>
			</output>
		</layer>
		<layer id="310" name="__module.model.layers.0.mlp.down_proj/ov_ext::linear/ConvertLike" type="Convert" version="opset1">
			<data destination_type="f32" />
			<rt_info>
				<attribute name="decompression" version="0" />
			</rt_info>
			<input>
				<port id="0" precision="FP16">
					<dim>3072</dim>
					<dim>8192</dim>
				</port>
			</input>
			<output>
				<port id="1" precision="FP32">
					<dim>3072</dim>
					<dim>8192</dim>
				</port>
			</output>
		</layer>
		<layer id="311" name="__module.model.layers.0.mlp.down_proj/ov_ext::linear/MatMul" type="MatMul" version="opset1">
			<data transpose_a="false" transpose_b="true" />
			<input>
				<port id="0" precision="FP32">
					<dim>-1</dim>
					<dim>-1</dim>
					<dim>8192</dim>
				</port>
				<port id="1" precision="FP32">
					<dim>3072</dim>
					<dim>8192</dim>
				</port>
			</input>
			<output>
				<port id="2" precision="FP32" names="525,input.5">
					<dim>-1</dim>
					<dim>-1</dim>
					<dim>3072</dim>
				</port>
			</output>
		</layer>
		<layer id="312" name="__module.model.layers.0/aten::add/Add_1" type="Add" version="opset1">
			<data auto_broadcast="numpy" />
			<input>
				<port id="0" precision="FP32">
					<dim>-1</dim>
					<dim>-1</dim>
					<dim>3072</dim>
				</port>
				<port id="1" precision="FP32">
					<dim>-1</dim>
					<dim>-1</dim>
					<dim>3072</dim>
				</port>
			</input>
			<output>
				<port id="2" precision="FP32" names="527,529,537,548,hidden_states.25,hidden_states.27">
					<dim>-1</dim>
					<dim>-1</dim>
					<dim>3072</dim>
				</port>
			</output>
		</layer>
		<layer id="313" name="Constant_85603" type="Const" version="opset1">
			<data element_type="f32" shape="1, 1, 3072" offset="157469116" size="12288" />
			<output>
				<port id="0" precision="FP32">
					<dim>1</dim>
					<dim>1</dim>
					<dim>3072</dim>
				</port>
			</output>
		</layer>
		<layer id="314" name="Constant_85602" type="Const" version="opset1">
			<data element_type="f32" shape="1, 1, 1" offset="98621404" size="4" />
			<output>
				<port id="0" precision="FP32">
					<dim>1</dim>
					<dim>1</dim>
					<dim>1</dim>
				</port>
			</output>
		</layer>
		<layer id="315" name="Constant_85600" type="Const" version="opset1">
			<data element_type="f32" shape="1, 1, 1" offset="98621408" size="4" />
			<output>
				<port id="0" precision="FP32">
					<dim>1</dim>
					<dim>1</dim>
					<dim>1</dim>
				</port>
			</output>
		</layer>
		<layer id="316" name="__module.model.layers.1.input_layernorm/aten::pow/Power" type="Power" version="opset1">
			<data auto_broadcast="numpy" />
			<input>
				<port id="0" precision="FP32">
					<dim>-1</dim>
					<dim>-1</dim>
					<dim>3072</dim>
				</port>
				<port id="1" precision="FP32">
					<dim>1</dim>
					<dim>1</dim>
					<dim>1</dim>
				</port>
			</input>
			<output>
				<port id="2" precision="FP32" names="538">
					<dim>-1</dim>
					<dim>-1</dim>
					<dim>3072</dim>
				</port>
			</output>
		</layer>
		<layer id="317" name="Constant_1417" type="Const" version="opset1">
			<data element_type="i64" shape="1" offset="98621412" size="8" />
			<output>
				<port id="0" precision="I64" names="539">
					<dim>1</dim>
				</port>
			</output>
		</layer>
		<layer id="318" name="__module.model.layers.1.input_layernorm/aten::mean/ReduceMean" type="ReduceMean" version="opset1">
			<data keep_dims="true" />
			<input>
				<port id="0" precision="FP32">
					<dim>-1</dim>
					<dim>-1</dim>
					<dim>3072</dim>
				</port>
				<port id="1" precision="I64">
					<dim>1</dim>
				</port>
			</input>
			<output>
				<port id="2" precision="FP32" names="540,variance.5">
					<dim>-1</dim>
					<dim>-1</dim>
					<dim>1</dim>
				</port>
			</output>
		</layer>
		<layer id="319" name="Constant_85601" type="Const" version="opset1">
			<data element_type="f32" shape="1, 1, 1" offset="98621420" size="4" />
			<output>
				<port id="0" precision="FP32">
					<dim>1</dim>
					<dim>1</dim>
					<dim>1</dim>
				</port>
			</output>
		</layer>
		<layer id="320" name="__module.model.layers.1.input_layernorm/aten::add/Add" type="Add" version="opset1">
			<data auto_broadcast="numpy" />
			<input>
				<port id="0" precision="FP32">
					<dim>-1</dim>
					<dim>-1</dim>
					<dim>1</dim>
				</port>
				<port id="1" precision="FP32">
					<dim>1</dim>
					<dim>1</dim>
					<dim>1</dim>
				</port>
			</input>
			<output>
				<port id="2" precision="FP32" names="541">
					<dim>-1</dim>
					<dim>-1</dim>
					<dim>1</dim>
				</port>
			</output>
		</layer>
		<layer id="321" name="__module.model.layers.1.input_layernorm/aten::rsqrt/Sqrt" type="Sqrt" version="opset1">
			<input>
				<port id="0" precision="FP32">
					<dim>-1</dim>
					<dim>-1</dim>
					<dim>1</dim>
				</port>
			</input>
			<output>
				<port id="1" precision="FP32">
					<dim>-1</dim>
					<dim>-1</dim>
					<dim>1</dim>
				</port>
			</output>
		</layer>
		<layer id="322" name="__module.model.layers.1.input_layernorm/aten::rsqrt/Divide" type="Divide" version="opset1">
			<data auto_broadcast="numpy" m_pythondiv="true" />
			<input>
				<port id="0" precision="FP32">
					<dim>1</dim>
					<dim>1</dim>
					<dim>1</dim>
				</port>
				<port id="1" precision="FP32">
					<dim>-1</dim>
					<dim>-1</dim>
					<dim>1</dim>
				</port>
			</input>
			<output>
				<port id="2" precision="FP32" names="542">
					<dim>-1</dim>
					<dim>-1</dim>
					<dim>1</dim>
				</port>
			</output>
		</layer>
		<layer id="323" name="__module.model.layers.1.input_layernorm/aten::mul/Multiply" type="Multiply" version="opset1">
			<data auto_broadcast="numpy" />
			<input>
				<port id="0" precision="FP32">
					<dim>-1</dim>
					<dim>-1</dim>
					<dim>3072</dim>
				</port>
				<port id="1" precision="FP32">
					<dim>-1</dim>
					<dim>-1</dim>
					<dim>1</dim>
				</port>
			</input>
			<output>
				<port id="2" precision="FP32" names="543,544,hidden_states.29,hidden_states.31">
					<dim>-1</dim>
					<dim>-1</dim>
					<dim>3072</dim>
				</port>
			</output>
		</layer>
		<layer id="324" name="__module.model.layers.1.input_layernorm/aten::mul/Multiply_1" type="Multiply" version="opset1">
			<data auto_broadcast="numpy" />
			<input>
				<port id="0" precision="FP32">
					<dim>1</dim>
					<dim>1</dim>
					<dim>3072</dim>
				</port>
				<port id="1" precision="FP32">
					<dim>-1</dim>
					<dim>-1</dim>
					<dim>3072</dim>
				</port>
			</input>
			<output>
				<port id="2" precision="FP32" names="545,547,hidden_states.33">
					<dim>-1</dim>
					<dim>-1</dim>
					<dim>3072</dim>
				</port>
			</output>
		</layer>
		<layer id="325" name="self.model.layers.1.self_attn.qkv_proj.weight" type="Const" version="opset1">
			<data element_type="u4" shape="9216, 24, 128" offset="157481404" size="14155776" />
			<output>
				<port id="0" precision="U4">
					<dim>9216</dim>
					<dim>24</dim>
					<dim>128</dim>
				</port>
			</output>
		</layer>
		<layer id="326" name="Convert_114942" type="Convert" version="opset1">
			<data destination_type="f16" />
			<input>
				<port id="0" precision="U4">
					<dim>9216</dim>
					<dim>24</dim>
					<dim>128</dim>
				</port>
			</input>
			<output>
				<port id="1" precision="FP16">
					<dim>9216</dim>
					<dim>24</dim>
					<dim>128</dim>
				</port>
			</output>
		</layer>
		<layer id="327" name="self.model.layers.1.self_attn.qkv_proj.weight/zero_point" type="Const" version="opset1">
			<data element_type="u4" shape="9216, 24, 1" offset="171637180" size="110592" />
			<output>
				<port id="0" precision="U4">
					<dim>9216</dim>
					<dim>24</dim>
					<dim>1</dim>
				</port>
			</output>
		</layer>
		<layer id="328" name="Convert_114944" type="Convert" version="opset1">
			<data destination_type="f16" />
			<input>
				<port id="0" precision="U4">
					<dim>9216</dim>
					<dim>24</dim>
					<dim>1</dim>
				</port>
			</input>
			<output>
				<port id="1" precision="FP16">
					<dim>9216</dim>
					<dim>24</dim>
					<dim>1</dim>
				</port>
			</output>
		</layer>
		<layer id="329" name="self.model.layers.1.self_attn.qkv_proj.weight/zero_point/subtract" type="Subtract" version="opset1">
			<data auto_broadcast="numpy" />
			<input>
				<port id="0" precision="FP16">
					<dim>9216</dim>
					<dim>24</dim>
					<dim>128</dim>
				</port>
				<port id="1" precision="FP16">
					<dim>9216</dim>
					<dim>24</dim>
					<dim>1</dim>
				</port>
			</input>
			<output>
				<port id="2" precision="FP16">
					<dim>9216</dim>
					<dim>24</dim>
					<dim>128</dim>
				</port>
			</output>
		</layer>
		<layer id="330" name="self.model.layers.1.self_attn.qkv_proj.weight/scale" type="Const" version="opset1">
			<data element_type="f16" shape="9216, 24, 1" offset="171747772" size="442368" />
			<output>
				<port id="0" precision="FP16">
					<dim>9216</dim>
					<dim>24</dim>
					<dim>1</dim>
				</port>
			</output>
		</layer>
		<layer id="331" name="self.model.layers.1.self_attn.qkv_proj.weight/fq_weights_1" type="Multiply" version="opset1">
			<data auto_broadcast="numpy" />
			<input>
				<port id="0" precision="FP16">
					<dim>9216</dim>
					<dim>24</dim>
					<dim>128</dim>
				</port>
				<port id="1" precision="FP16">
					<dim>9216</dim>
					<dim>24</dim>
					<dim>1</dim>
				</port>
			</input>
			<output>
				<port id="2" precision="FP16">
					<dim>9216</dim>
					<dim>24</dim>
					<dim>128</dim>
				</port>
			</output>
		</layer>
		<layer id="332" name="Constant_114949" type="Const" version="opset1">
			<data element_type="i64" shape="2" offset="113330160" size="16" />
			<output>
				<port id="0" precision="I64">
					<dim>2</dim>
				</port>
			</output>
		</layer>
		<layer id="333" name="Reshape_114950" type="Reshape" version="opset1">
			<data special_zero="false" />
			<input>
				<port id="0" precision="FP16">
					<dim>9216</dim>
					<dim>24</dim>
					<dim>128</dim>
				</port>
				<port id="1" precision="I64">
					<dim>2</dim>
				</port>
			</input>
			<output>
				<port id="2" precision="FP16">
					<dim>9216</dim>
					<dim>3072</dim>
				</port>
			</output>
		</layer>
		<layer id="334" name="__module.model.layers.1.self_attn.qkv_proj/ov_ext::linear/ConvertLike" type="Convert" version="opset1">
			<data destination_type="f32" />
			<rt_info>
				<attribute name="decompression" version="0" />
			</rt_info>
			<input>
				<port id="0" precision="FP16">
					<dim>9216</dim>
					<dim>3072</dim>
				</port>
			</input>
			<output>
				<port id="1" precision="FP32">
					<dim>9216</dim>
					<dim>3072</dim>
				</port>
			</output>
		</layer>
		<layer id="335" name="__module.model.layers.1.self_attn.qkv_proj/ov_ext::linear/MatMul" type="MatMul" version="opset1">
			<data transpose_a="false" transpose_b="true" />
			<input>
				<port id="0" precision="FP32">
					<dim>-1</dim>
					<dim>-1</dim>
					<dim>3072</dim>
				</port>
				<port id="1" precision="FP32">
					<dim>9216</dim>
					<dim>3072</dim>
				</port>
			</input>
			<output>
				<port id="2" precision="FP32" names="554,qkv.3">
					<dim>-1</dim>
					<dim>-1</dim>
					<dim>9216</dim>
				</port>
			</output>
		</layer>
		<layer id="336" name="Constant_1461" type="Const" version="opset1">
			<data element_type="i64" shape="1" offset="4" size="8" />
			<output>
				<port id="0" precision="I64">
					<dim>1</dim>
				</port>
			</output>
		</layer>
		<layer id="337" name="Constant_1463" type="Const" version="opset1">
			<data element_type="i64" shape="1" offset="113330176" size="8" />
			<output>
				<port id="0" precision="I64">
					<dim>1</dim>
				</port>
			</output>
		</layer>
		<layer id="338" name="Constant_1465" type="Const" version="opset1">
			<data element_type="i64" shape="1" offset="113330184" size="8" />
			<output>
				<port id="0" precision="I64">
					<dim>1</dim>
				</port>
			</output>
		</layer>
		<layer id="339" name="__module.model.layers.1.self_attn/aten::slice/Slice" type="Slice" version="opset8">
			<input>
				<port id="0" precision="FP32">
					<dim>-1</dim>
					<dim>-1</dim>
					<dim>9216</dim>
				</port>
				<port id="1" precision="I64">
					<dim>1</dim>
				</port>
				<port id="2" precision="I64">
					<dim>1</dim>
				</port>
				<port id="3" precision="I64">
					<dim>1</dim>
				</port>
				<port id="4" precision="I64">
					<dim>1</dim>
				</port>
			</input>
			<output>
				<port id="5" precision="FP32" names="555,query_states.3">
					<dim>-1</dim>
					<dim>-1</dim>
					<dim>3072</dim>
				</port>
			</output>
		</layer>
		<layer id="340" name="Constant_92149" type="Const" version="opset1">
			<data element_type="i64" shape="4" offset="113330200" size="32" />
			<output>
				<port id="0" precision="I64">
					<dim>4</dim>
				</port>
			</output>
		</layer>
		<layer id="341" name="__module.model.layers.1.self_attn/aten::view/Reshape" type="Reshape" version="opset1">
			<data special_zero="true" />
			<input>
				<port id="0" precision="FP32">
					<dim>-1</dim>
					<dim>-1</dim>
					<dim>3072</dim>
				</port>
				<port id="1" precision="I64">
					<dim>4</dim>
				</port>
			</input>
			<output>
				<port id="2" precision="FP32" names="559">
					<dim>-1</dim>
					<dim>-1</dim>
					<dim>32</dim>
					<dim>96</dim>
				</port>
			</output>
		</layer>
		<layer id="342" name="__module.model.layers.1.self_attn/aten::transpose/Constant" type="Const" version="opset1">
			<data element_type="i32" shape="4" offset="113330232" size="16" />
			<output>
				<port id="0" precision="I32">
					<dim>4</dim>
				</port>
			</output>
		</layer>
		<layer id="343" name="__module.model.layers.1.self_attn/aten::transpose/Transpose" type="Transpose" version="opset1">
			<input>
				<port id="0" precision="FP32">
					<dim>-1</dim>
					<dim>-1</dim>
					<dim>32</dim>
					<dim>96</dim>
				</port>
				<port id="1" precision="I32">
					<dim>4</dim>
				</port>
			</input>
			<output>
				<port id="2" precision="FP32" names="560,q.3">
					<dim>-1</dim>
					<dim>32</dim>
					<dim>-1</dim>
					<dim>96</dim>
				</port>
			</output>
		</layer>
		<layer id="344" name="__module.model.layers.1.self_attn/aten::mul/Multiply" type="Multiply" version="opset1">
			<data auto_broadcast="numpy" />
			<input>
				<port id="0" precision="FP32">
					<dim>-1</dim>
					<dim>32</dim>
					<dim>-1</dim>
					<dim>96</dim>
				</port>
				<port id="1" precision="FP32">
					<dim>-1</dim>
					<dim>1</dim>
					<dim>-1</dim>
					<dim>96</dim>
				</port>
			</input>
			<output>
				<port id="2" precision="FP32" names="609">
					<dim>-1</dim>
					<dim>32</dim>
					<dim>-1</dim>
					<dim>96</dim>
				</port>
			</output>
		</layer>
		<layer id="345" name="Constant_2028" type="Const" version="opset1">
			<data element_type="i64" shape="1" offset="113330472" size="8" />
			<output>
				<port id="0" precision="I64">
					<dim>1</dim>
				</port>
			</output>
		</layer>
		<layer id="346" name="Constant_2030" type="Const" version="opset1">
			<data element_type="i64" shape="1" offset="113330480" size="8" />
			<output>
				<port id="0" precision="I64">
					<dim>1</dim>
				</port>
			</output>
		</layer>
		<layer id="347" name="Constant_2032" type="Const" version="opset1">
			<data element_type="i64" shape="1" offset="113330184" size="8" />
			<output>
				<port id="0" precision="I64">
					<dim>1</dim>
				</port>
			</output>
		</layer>
		<layer id="348" name="__module.model.layers.1.self_attn/aten::slice/Slice_1" type="Slice" version="opset8">
			<input>
				<port id="0" precision="FP32">
					<dim>-1</dim>
					<dim>32</dim>
					<dim>-1</dim>
					<dim>96</dim>
				</port>
				<port id="1" precision="I64">
					<dim>1</dim>
				</port>
				<port id="2" precision="I64">
					<dim>1</dim>
				</port>
				<port id="3" precision="I64">
					<dim>1</dim>
				</port>
				<port id="4" precision="I64">
					<dim>1</dim>
				</port>
			</input>
			<output>
				<port id="5" precision="FP32" names="619,x2.5">
					<dim>-1</dim>
					<dim>32</dim>
					<dim>-1</dim>
					<dim>48</dim>
				</port>
			</output>
		</layer>
		<layer id="349" name="Constant_85604" type="Const" version="opset1">
			<data element_type="f32" shape="1, 1, 1, 1" offset="113330496" size="4" />
			<output>
				<port id="0" precision="FP32">
					<dim>1</dim>
					<dim>1</dim>
					<dim>1</dim>
					<dim>1</dim>
				</port>
			</output>
		</layer>
		<layer id="350" name="__module.model.layers.1.self_attn/aten::neg/Multiply" type="Multiply" version="opset1">
			<data auto_broadcast="numpy" />
			<input>
				<port id="0" precision="FP32">
					<dim>-1</dim>
					<dim>32</dim>
					<dim>-1</dim>
					<dim>48</dim>
				</port>
				<port id="1" precision="FP32">
					<dim>1</dim>
					<dim>1</dim>
					<dim>1</dim>
					<dim>1</dim>
				</port>
			</input>
			<output>
				<port id="2" precision="FP32" names="620">
					<dim>-1</dim>
					<dim>32</dim>
					<dim>-1</dim>
					<dim>48</dim>
				</port>
			</output>
		</layer>
		<layer id="351" name="Constant_1925" type="Const" version="opset1">
			<data element_type="i64" shape="1" offset="4" size="8" />
			<output>
				<port id="0" precision="I64">
					<dim>1</dim>
				</port>
			</output>
		</layer>
		<layer id="352" name="Constant_1969" type="Const" version="opset1">
			<data element_type="i64" shape="1" offset="113330472" size="8" />
			<output>
				<port id="0" precision="I64">
					<dim>1</dim>
				</port>
			</output>
		</layer>
		<layer id="353" name="Constant_1971" type="Const" version="opset1">
			<data element_type="i64" shape="1" offset="113330184" size="8" />
			<output>
				<port id="0" precision="I64">
					<dim>1</dim>
				</port>
			</output>
		</layer>
		<layer id="354" name="__module.model.layers.1.self_attn/aten::slice/Slice_2" type="Slice" version="opset8">
			<input>
				<port id="0" precision="FP32">
					<dim>-1</dim>
					<dim>32</dim>
					<dim>-1</dim>
					<dim>96</dim>
				</port>
				<port id="1" precision="I64">
					<dim>1</dim>
				</port>
				<port id="2" precision="I64">
					<dim>1</dim>
				</port>
				<port id="3" precision="I64">
					<dim>1</dim>
				</port>
				<port id="4" precision="I64">
					<dim>1</dim>
				</port>
			</input>
			<output>
				<port id="5" precision="FP32" names="614">
					<dim>-1</dim>
					<dim>32</dim>
					<dim>-1</dim>
					<dim>48</dim>
				</port>
			</output>
		</layer>
		<layer id="355" name="__module.model.layers.1.self_attn/aten::cat/Concat" type="Concat" version="opset1">
			<data axis="-1" />
			<input>
				<port id="0" precision="FP32">
					<dim>-1</dim>
					<dim>32</dim>
					<dim>-1</dim>
					<dim>48</dim>
				</port>
				<port id="1" precision="FP32">
					<dim>-1</dim>
					<dim>32</dim>
					<dim>-1</dim>
					<dim>48</dim>
				</port>
			</input>
			<output>
				<port id="2" precision="FP32" names="622">
					<dim>-1</dim>
					<dim>32</dim>
					<dim>-1</dim>
					<dim>96</dim>
				</port>
			</output>
		</layer>
		<layer id="356" name="__module.model.layers.1.self_attn/aten::mul/Multiply_1" type="Multiply" version="opset1">
			<data auto_broadcast="numpy" />
			<input>
				<port id="0" precision="FP32">
					<dim>-1</dim>
					<dim>32</dim>
					<dim>-1</dim>
					<dim>96</dim>
				</port>
				<port id="1" precision="FP32">
					<dim>-1</dim>
					<dim>1</dim>
					<dim>-1</dim>
					<dim>96</dim>
				</port>
			</input>
			<output>
				<port id="2" precision="FP32" names="623">
					<dim>-1</dim>
					<dim>32</dim>
					<dim>-1</dim>
					<dim>96</dim>
				</port>
			</output>
		</layer>
		<layer id="357" name="__module.model.layers.1.self_attn/aten::add/Add" type="Add" version="opset1">
			<data auto_broadcast="numpy" />
			<input>
				<port id="0" precision="FP32">
					<dim>-1</dim>
					<dim>32</dim>
					<dim>-1</dim>
					<dim>96</dim>
				</port>
				<port id="1" precision="FP32">
					<dim>-1</dim>
					<dim>32</dim>
					<dim>-1</dim>
					<dim>96</dim>
				</port>
			</input>
			<output>
				<port id="2" precision="FP32" names="624">
					<dim>-1</dim>
					<dim>32</dim>
					<dim>-1</dim>
					<dim>96</dim>
				</port>
			</output>
		</layer>
		<layer id="358" name="Constant_97789" type="Const" version="opset1">
			<data element_type="f32" shape="" offset="0" size="4" />
			<output>
				<port id="0" precision="FP32" />
			</output>
		</layer>
		<layer id="359" name="Constant_97782" type="Const" version="opset1">
			<data element_type="i64" shape="1" offset="12" size="8" />
			<output>
				<port id="0" precision="I64">
					<dim>1</dim>
				</port>
			</output>
		</layer>
		<layer id="360" name="Constant_97784" type="Const" version="opset1">
			<data element_type="i64" shape="1" offset="4" size="8" />
			<output>
				<port id="0" precision="I64">
					<dim>1</dim>
				</port>
			</output>
		</layer>
		<layer id="361" name="Constant_97786" type="Const" version="opset1">
			<data element_type="i64" shape="1" offset="20" size="8" />
			<output>
				<port id="0" precision="I64">
					<dim>1</dim>
				</port>
			</output>
		</layer>
		<layer id="362" name="Concat_97787" type="Concat" version="opset1">
			<data axis="0" />
			<input>
				<port id="0" precision="I64">
					<dim>1</dim>
				</port>
				<port id="1" precision="I64">
					<dim>1</dim>
				</port>
				<port id="2" precision="I64">
					<dim>1</dim>
				</port>
				<port id="3" precision="I64">
					<dim>1</dim>
				</port>
			</input>
			<output>
				<port id="4" precision="I64">
					<dim>4</dim>
				</port>
			</output>
		</layer>
		<layer id="363" name="Broadcast_97790" type="Broadcast" version="opset3">
			<data mode="numpy" />
			<input>
				<port id="0" precision="FP32" />
				<port id="1" precision="I64">
					<dim>4</dim>
				</port>
			</input>
			<output>
				<port id="2" precision="FP32">
					<dim>-1</dim>
					<dim>32</dim>
					<dim>0</dim>
					<dim>96</dim>
				</port>
			</output>
		</layer>
		<layer id="364" name="ReadValue_96600" type="ReadValue" version="opset6">
			<data variable_id="past_key_values.1.keypresent.1.key" variable_type="f32" variable_shape="?,32,?,96" />
			<input>
				<port id="0" precision="FP32">
					<dim>-1</dim>
					<dim>32</dim>
					<dim>0</dim>
					<dim>96</dim>
				</port>
			</input>
			<output>
				<port id="1" precision="FP32" names="past_key_values.1.key">
					<dim>-1</dim>
					<dim>32</dim>
					<dim>-1</dim>
					<dim>96</dim>
				</port>
			</output>
		</layer>
		<layer id="365" name="Constant_95408" type="Const" version="opset1">
			<data element_type="i64" shape="" offset="4" size="8" />
			<output>
				<port id="0" precision="I64" />
			</output>
		</layer>
		<layer id="366" name="Gather_95409" type="Gather" version="opset8">
			<data batch_dims="0" />
			<input>
				<port id="0" precision="FP32">
					<dim>-1</dim>
					<dim>32</dim>
					<dim>-1</dim>
					<dim>96</dim>
				</port>
				<port id="1" precision="I32">
					<dim>-1</dim>
				</port>
				<port id="2" precision="I64" />
			</input>
			<output>
				<port id="3" precision="FP32">
					<dim>-1</dim>
					<dim>32</dim>
					<dim>-1</dim>
					<dim>96</dim>
				</port>
			</output>
		</layer>
		<layer id="367" name="Constant_1471" type="Const" version="opset1">
			<data element_type="i64" shape="1" offset="113330176" size="8" />
			<output>
				<port id="0" precision="I64">
					<dim>1</dim>
				</port>
			</output>
		</layer>
		<layer id="368" name="Constant_1473" type="Const" version="opset1">
			<data element_type="i64" shape="1" offset="113330500" size="8" />
			<output>
				<port id="0" precision="I64">
					<dim>1</dim>
				</port>
			</output>
		</layer>
		<layer id="369" name="Constant_1475" type="Const" version="opset1">
			<data element_type="i64" shape="1" offset="113330184" size="8" />
			<output>
				<port id="0" precision="I64">
					<dim>1</dim>
				</port>
			</output>
		</layer>
		<layer id="370" name="__module.model.layers.1.self_attn/aten::slice/Slice_3" type="Slice" version="opset8">
			<input>
				<port id="0" precision="FP32">
					<dim>-1</dim>
					<dim>-1</dim>
					<dim>9216</dim>
				</port>
				<port id="1" precision="I64">
					<dim>1</dim>
				</port>
				<port id="2" precision="I64">
					<dim>1</dim>
				</port>
				<port id="3" precision="I64">
					<dim>1</dim>
				</port>
				<port id="4" precision="I64">
					<dim>1</dim>
				</port>
			</input>
			<output>
				<port id="5" precision="FP32" names="556,key_states.9">
					<dim>-1</dim>
					<dim>-1</dim>
					<dim>3072</dim>
				</port>
			</output>
		</layer>
		<layer id="371" name="Constant_92150" type="Const" version="opset1">
			<data element_type="i64" shape="4" offset="113330200" size="32" />
			<output>
				<port id="0" precision="I64">
					<dim>4</dim>
				</port>
			</output>
		</layer>
		<layer id="372" name="__module.model.layers.1.self_attn/aten::view/Reshape_1" type="Reshape" version="opset1">
			<data special_zero="true" />
			<input>
				<port id="0" precision="FP32">
					<dim>-1</dim>
					<dim>-1</dim>
					<dim>3072</dim>
				</port>
				<port id="1" precision="I64">
					<dim>4</dim>
				</port>
			</input>
			<output>
				<port id="2" precision="FP32" names="562">
					<dim>-1</dim>
					<dim>-1</dim>
					<dim>32</dim>
					<dim>96</dim>
				</port>
			</output>
		</layer>
		<layer id="373" name="__module.model.layers.1.self_attn/aten::transpose/Constant_1" type="Const" version="opset1">
			<data element_type="i32" shape="4" offset="113330232" size="16" />
			<output>
				<port id="0" precision="I32">
					<dim>4</dim>
				</port>
			</output>
		</layer>
		<layer id="374" name="__module.model.layers.1.self_attn/aten::transpose/Transpose_1" type="Transpose" version="opset1">
			<input>
				<port id="0" precision="FP32">
					<dim>-1</dim>
					<dim>-1</dim>
					<dim>32</dim>
					<dim>96</dim>
				</port>
				<port id="1" precision="I32">
					<dim>4</dim>
				</port>
			</input>
			<output>
				<port id="2" precision="FP32" names="563,key_states.11">
					<dim>-1</dim>
					<dim>32</dim>
					<dim>-1</dim>
					<dim>96</dim>
				</port>
			</output>
		</layer>
		<layer id="375" name="__module.model.layers.1.self_attn/aten::mul/Multiply_2" type="Multiply" version="opset1">
			<data auto_broadcast="numpy" />
			<input>
				<port id="0" precision="FP32">
					<dim>-1</dim>
					<dim>32</dim>
					<dim>-1</dim>
					<dim>96</dim>
				</port>
				<port id="1" precision="FP32">
					<dim>-1</dim>
					<dim>1</dim>
					<dim>-1</dim>
					<dim>96</dim>
				</port>
			</input>
			<output>
				<port id="2" precision="FP32" names="625">
					<dim>-1</dim>
					<dim>32</dim>
					<dim>-1</dim>
					<dim>96</dim>
				</port>
			</output>
		</layer>
		<layer id="376" name="Constant_2171" type="Const" version="opset1">
…
		<edge from-layer="4356" from-port="0" to-layer="4357" to-port="1" />
		<edge from-layer="4357" from-port="2" to-layer="4358" to-port="0" />
		<edge from-layer="4358" from-port="1" to-layer="4359" to-port="1" />
		<edge from-layer="4359" from-port="2" to-layer="4360" to-port="0" />
		<edge from-layer="4360" from-port="3" to-layer="4361" to-port="0" />
		<edge from-layer="4360" from-port="4" to-layer="4362" to-port="0" />
		<edge from-layer="4361" from-port="1" to-layer="4362" to-port="1" />
		<edge from-layer="4362" from-port="2" to-layer="4373" to-port="0" />
		<edge from-layer="4363" from-port="0" to-layer="4364" to-port="0" />
		<edge from-layer="4364" from-port="1" to-layer="4367" to-port="0" />
		<edge from-layer="4365" from-port="0" to-layer="4366" to-port="0" />
		<edge from-layer="4366" from-port="1" to-layer="4367" to-port="1" />
		<edge from-layer="4367" from-port="2" to-layer="4369" to-port="0" />
		<edge from-layer="4368" from-port="0" to-layer="4369" to-port="1" />
		<edge from-layer="4369" from-port="2" to-layer="4371" to-port="0" />
		<edge from-layer="4370" from-port="0" to-layer="4371" to-port="1" />
		<edge from-layer="4371" from-port="2" to-layer="4372" to-port="0" />
		<edge from-layer="4372" from-port="1" to-layer="4373" to-port="1" />
		<edge from-layer="4373" from-port="2" to-layer="4374" to-port="1" />
		<edge from-layer="4374" from-port="2" to-layer="4486" to-port="0" />
		<edge from-layer="4374" from-port="2" to-layer="4385" to-port="0" />
		<edge from-layer="4374" from-port="2" to-layer="4378" to-port="0" />
		<edge from-layer="4375" from-port="0" to-layer="4386" to-port="0" />
		<edge from-layer="4376" from-port="0" to-layer="4384" to-port="0" />
		<edge from-layer="4377" from-port="0" to-layer="4378" to-port="1" />
		<edge from-layer="4378" from-port="2" to-layer="4380" to-port="0" />
		<edge from-layer="4379" from-port="0" to-layer="4380" to-port="1" />
		<edge from-layer="4380" from-port="2" to-layer="4382" to-port="0" />
		<edge from-layer="4381" from-port="0" to-layer="4382" to-port="1" />
		<edge from-layer="4382" from-port="2" to-layer="4383" to-port="0" />
		<edge from-layer="4383" from-port="1" to-layer="4384" to-port="1" />
		<edge from-layer="4384" from-port="2" to-layer="4385" to-port="1" />
		<edge from-layer="4385" from-port="2" to-layer="4386" to-port="1" />
		<edge from-layer="4386" from-port="2" to-layer="4397" to-port="0" />
		<edge from-layer="4387" from-port="0" to-layer="4388" to-port="0" />
		<edge from-layer="4388" from-port="1" to-layer="4391" to-port="0" />
		<edge from-layer="4389" from-port="0" to-layer="4390" to-port="0" />
		<edge from-layer="4390" from-port="1" to-layer="4391" to-port="1" />
		<edge from-layer="4391" from-port="2" to-layer="4393" to-port="0" />
		<edge from-layer="4392" from-port="0" to-layer="4393" to-port="1" />
		<edge from-layer="4393" from-port="2" to-layer="4395" to-port="0" />
		<edge from-layer="4394" from-port="0" to-layer="4395" to-port="1" />
		<edge from-layer="4395" from-port="2" to-layer="4396" to-port="0" />
		<edge from-layer="4396" from-port="1" to-layer="4397" to-port="1" />
		<edge from-layer="4397" from-port="2" to-layer="4432" to-port="0" />
		<edge from-layer="4397" from-port="2" to-layer="4401" to-port="0" />
		<edge from-layer="4397" from-port="2" to-layer="4464" to-port="0" />
		<edge from-layer="4398" from-port="0" to-layer="4401" to-port="1" />
		<edge from-layer="4399" from-port="0" to-layer="4401" to-port="2" />
		<edge from-layer="4400" from-port="0" to-layer="4401" to-port="3" />
		<edge from-layer="4401" from-port="5" to-layer="4403" to-port="0" />
		<edge from-layer="4402" from-port="0" to-layer="4403" to-port="1" />
		<edge from-layer="4403" from-port="2" to-layer="4405" to-port="0" />
		<edge from-layer="4404" from-port="0" to-layer="4405" to-port="1" />
		<edge from-layer="4405" from-port="2" to-layer="4416" to-port="0" />
		<edge from-layer="4405" from-port="2" to-layer="4410" to-port="0" />
		<edge from-layer="4405" from-port="2" to-layer="4406" to-port="0" />
		<edge from-layer="4406" from-port="2" to-layer="4419" to-port="0" />
		<edge from-layer="4407" from-port="0" to-layer="4410" to-port="1" />
		<edge from-layer="4408" from-port="0" to-layer="4410" to-port="2" />
		<edge from-layer="4409" from-port="0" to-layer="4410" to-port="3" />
		<edge from-layer="4410" from-port="5" to-layer="4412" to-port="0" />
		<edge from-layer="4411" from-port="0" to-layer="4412" to-port="1" />
		<edge from-layer="4412" from-port="2" to-layer="4417" to-port="0" />
		<edge from-layer="4413" from-port="0" to-layer="4416" to-port="1" />
		<edge from-layer="4414" from-port="0" to-layer="4416" to-port="2" />
		<edge from-layer="4415" from-port="0" to-layer="4416" to-port="3" />
		<edge from-layer="4416" from-port="5" to-layer="4417" to-port="1" />
		<edge from-layer="4417" from-port="2" to-layer="4418" to-port="0" />
		<edge from-layer="4418" from-port="2" to-layer="4419" to-port="1" />
		<edge from-layer="4419" from-port="2" to-layer="4470" to-port="0" />
		<edge from-layer="4420" from-port="0" to-layer="4425" to-port="0" />
		<edge from-layer="4421" from-port="0" to-layer="4424" to-port="1" />
		<edge from-layer="4422" from-port="0" to-layer="4424" to-port="2" />
		<edge from-layer="4423" from-port="0" to-layer="4424" to-port="3" />
		<edge from-layer="4424" from-port="4" to-layer="4425" to-port="1" />
		<edge from-layer="4425" from-port="2" to-layer="4426" to-port="0" />
		<edge from-layer="4426" from-port="1" to-layer="4428" to-port="0" />
		<edge from-layer="4427" from-port="0" to-layer="4428" to-port="2" />
		<edge from-layer="4428" from-port="3" to-layer="4451" to-port="0" />
		<edge from-layer="4429" from-port="0" to-layer="4432" to-port="1" />
		<edge from-layer="4430" from-port="0" to-layer="4432" to-port="2" />
		<edge from-layer="4431" from-port="0" to-layer="4432" to-port="3" />
		<edge from-layer="4432" from-port="5" to-layer="4434" to-port="0" />
		<edge from-layer="4433" from-port="0" to-layer="4434" to-port="1" />
		<edge from-layer="4434" from-port="2" to-layer="4436" to-port="0" />
		<edge from-layer="4435" from-port="0" to-layer="4436" to-port="1" />
		<edge from-layer="4436" from-port="2" to-layer="4441" to-port="0" />
		<edge from-layer="4436" from-port="2" to-layer="4447" to-port="0" />
		<edge from-layer="4436" from-port="2" to-layer="4437" to-port="0" />
		<edge from-layer="4437" from-port="2" to-layer="4450" to-port="0" />
		<edge from-layer="4438" from-port="0" to-layer="4441" to-port="1" />
		<edge from-layer="4439" from-port="0" to-layer="4441" to-port="2" />
		<edge from-layer="4440" from-port="0" to-layer="4441" to-port="3" />
		<edge from-layer="4441" from-port="5" to-layer="4443" to-port="0" />
		<edge from-layer="4442" from-port="0" to-layer="4443" to-port="1" />
		<edge from-layer="4443" from-port="2" to-layer="4448" to-port="0" />
		<edge from-layer="4444" from-port="0" to-layer="4447" to-port="1" />
		<edge from-layer="4445" from-port="0" to-layer="4447" to-port="2" />
		<edge from-layer="4446" from-port="0" to-layer="4447" to-port="3" />
		<edge from-layer="4447" from-port="5" to-layer="4448" to-port="1" />
		<edge from-layer="4448" from-port="2" to-layer="4449" to-port="0" />
		<edge from-layer="4449" from-port="2" to-layer="4450" to-port="1" />
		<edge from-layer="4450" from-port="2" to-layer="4451" to-port="1" />
		<edge from-layer="4451" from-port="2" to-layer="4470" to-port="1" />
		<edge from-layer="4451" from-port="2" to-layer="4897" to-port="0" />
		<edge from-layer="4452" from-port="0" to-layer="4457" to-port="0" />
		<edge from-layer="4453" from-port="0" to-layer="4456" to-port="1" />
		<edge from-layer="4454" from-port="0" to-layer="4456" to-port="2" />
		<edge from-layer="4455" from-port="0" to-layer="4456" to-port="3" />
		<edge from-layer="4456" from-port="4" to-layer="4457" to-port="1" />
		<edge from-layer="4457" from-port="2" to-layer="4458" to-port="0" />
		<edge from-layer="4458" from-port="1" to-layer="4460" to-port="0" />
		<edge from-layer="4459" from-port="0" to-layer="4460" to-port="2" />
		<edge from-layer="4460" from-port="3" to-layer="4469" to-port="0" />
		<edge from-layer="4461" from-port="0" to-layer="4464" to-port="1" />
		<edge from-layer="4462" from-port="0" to-layer="4464" to-port="2" />
		<edge from-layer="4463" from-port="0" to-layer="4464" to-port="3" />
		<edge from-layer="4464" from-port="5" to-layer="4466" to-port="0" />
		<edge from-layer="4465" from-port="0" to-layer="4466" to-port="1" />
		<edge from-layer="4466" from-port="2" to-layer="4468" to-port="0" />
		<edge from-layer="4467" from-port="0" to-layer="4468" to-port="1" />
		<edge from-layer="4468" from-port="2" to-layer="4469" to-port="1" />
		<edge from-layer="4469" from-port="2" to-layer="4896" to-port="0" />
		<edge from-layer="4469" from-port="2" to-layer="4470" to-port="2" />
		<edge from-layer="4470" from-port="4" to-layer="4472" to-port="0" />
		<edge from-layer="4471" from-port="0" to-layer="4472" to-port="1" />
		<edge from-layer="4472" from-port="2" to-layer="4474" to-port="0" />
		<edge from-layer="4473" from-port="0" to-layer="4474" to-port="1" />
		<edge from-layer="4474" from-port="2" to-layer="4485" to-port="0" />
		<edge from-layer="4475" from-port="0" to-layer="4476" to-port="0" />
		<edge from-layer="4476" from-port="1" to-layer="4479" to-port="0" />
		<edge from-layer="4477" from-port="0" to-layer="4478" to-port="0" />
		<edge from-layer="4478" from-port="1" to-layer="4479" to-port="1" />
		<edge from-layer="4479" from-port="2" to-layer="4481" to-port="0" />
		<edge from-layer="4480" from-port="0" to-layer="4481" to-port="1" />
		<edge from-layer="4481" from-port="2" to-layer="4483" to-port="0" />
		<edge from-layer="4482" from-port="0" to-layer="4483" to-port="1" />
		<edge from-layer="4483" from-port="2" to-layer="4484" to-port="0" />
		<edge from-layer="4484" from-port="1" to-layer="4485" to-port="1" />
		<edge from-layer="4485" from-port="2" to-layer="4486" to-port="1" />
		<edge from-layer="4486" from-port="2" to-layer="4490" to-port="0" />
		<edge from-layer="4486" from-port="2" to-layer="4524" to-port="0" />
		<edge from-layer="4486" from-port="2" to-layer="4497" to-port="0" />
		<edge from-layer="4487" from-port="0" to-layer="4498" to-port="0" />
		<edge from-layer="4488" from-port="0" to-layer="4496" to-port="0" />
		<edge from-layer="4489" from-port="0" to-layer="4490" to-port="1" />
		<edge from-layer="4490" from-port="2" to-layer="4492" to-port="0" />
		<edge from-layer="4491" from-port="0" to-layer="4492" to-port="1" />
		<edge from-layer="4492" from-port="2" to-layer="4494" to-port="0" />
		<edge from-layer="4493" from-port="0" to-layer="4494" to-port="1" />
		<edge from-layer="4494" from-port="2" to-layer="4495" to-port="0" />
		<edge from-layer="4495" from-port="1" to-layer="4496" to-port="1" />
		<edge from-layer="4496" from-port="2" to-layer="4497" to-port="1" />
		<edge from-layer="4497" from-port="2" to-layer="4498" to-port="1" />
		<edge from-layer="4498" from-port="2" to-layer="4509" to-port="0" />
		<edge from-layer="4499" from-port="0" to-layer="4500" to-port="0" />
		<edge from-layer="4500" from-port="1" to-layer="4503" to-port="0" />
		<edge from-layer="4501" from-port="0" to-layer="4502" to-port="0" />
		<edge from-layer="4502" from-port="1" to-layer="4503" to-port="1" />
		<edge from-layer="4503" from-port="2" to-layer="4505" to-port="0" />
		<edge from-layer="4504" from-port="0" to-layer="4505" to-port="1" />
		<edge from-layer="4505" from-port="2" to-layer="4507" to-port="0" />
		<edge from-layer="4506" from-port="0" to-layer="4507" to-port="1" />
		<edge from-layer="4507" from-port="2" to-layer="4508" to-port="0" />
		<edge from-layer="4508" from-port="1" to-layer="4509" to-port="1" />
		<edge from-layer="4509" from-port="2" to-layer="4510" to-port="0" />
		<edge from-layer="4510" from-port="4" to-layer="4512" to-port="0" />
		<edge from-layer="4510" from-port="3" to-layer="4511" to-port="0" />
		<edge from-layer="4511" from-port="1" to-layer="4512" to-port="1" />
		<edge from-layer="4512" from-port="2" to-layer="4523" to-port="0" />
		<edge from-layer="4513" from-port="0" to-layer="4514" to-port="0" />
		<edge from-layer="4514" from-port="1" to-layer="4517" to-port="0" />
		<edge from-layer="4515" from-port="0" to-layer="4516" to-port="0" />
		<edge from-layer="4516" from-port="1" to-layer="4517" to-port="1" />
		<edge from-layer="4517" from-port="2" to-layer="4519" to-port="0" />
		<edge from-layer="4518" from-port="0" to-layer="4519" to-port="1" />
		<edge from-layer="4519" from-port="2" to-layer="4521" to-port="0" />
		<edge from-layer="4520" from-port="0" to-layer="4521" to-port="1" />
		<edge from-layer="4521" from-port="2" to-layer="4522" to-port="0" />
		<edge from-layer="4522" from-port="1" to-layer="4523" to-port="1" />
		<edge from-layer="4523" from-port="2" to-layer="4524" to-port="1" />
		<edge from-layer="4524" from-port="2" to-layer="4636" to-port="0" />
		<edge from-layer="4524" from-port="2" to-layer="4528" to-port="0" />
		<edge from-layer="4524" from-port="2" to-layer="4535" to-port="0" />
		<edge from-layer="4525" from-port="0" to-layer="4536" to-port="0" />
		<edge from-layer="4526" from-port="0" to-layer="4534" to-port="0" />
		<edge from-layer="4527" from-port="0" to-layer="4528" to-port="1" />
		<edge from-layer="4528" from-port="2" to-layer="4530" to-port="0" />
		<edge from-layer="4529" from-port="0" to-layer="4530" to-port="1" />
		<edge from-layer="4530" from-port="2" to-layer="4532" to-port="0" />
		<edge from-layer="4531" from-port="0" to-layer="4532" to-port="1" />
		<edge from-layer="4532" from-port="2" to-layer="4533" to-port="0" />
		<edge from-layer="4533" from-port="1" to-layer="4534" to-port="1" />
		<edge from-layer="4534" from-port="2" to-layer="4535" to-port="1" />
		<edge from-layer="4535" from-port="2" to-layer="4536" to-port="1" />
		<edge from-layer="4536" from-port="2" to-layer="4547" to-port="0" />
		<edge from-layer="4537" from-port="0" to-layer="4538" to-port="0" />
		<edge from-layer="4538" from-port="1" to-layer="4541" to-port="0" />
		<edge from-layer="4539" from-port="0" to-layer="4540" to-port="0" />
		<edge from-layer="4540" from-port="1" to-layer="4541" to-port="1" />
		<edge from-layer="4541" from-port="2" to-layer="4543" to-port="0" />
		<edge from-layer="4542" from-port="0" to-layer="4543" to-port="1" />
		<edge from-layer="4543" from-port="2" to-layer="4545" to-port="0" />
		<edge from-layer="4544" from-port="0" to-layer="4545" to-port="1" />
		<edge from-layer="4545" from-port="2" to-layer="4546" to-port="0" />
		<edge from-layer="4546" from-port="1" to-layer="4547" to-port="1" />
		<edge from-layer="4547" from-port="2" to-layer="4614" to-port="0" />
		<edge from-layer="4547" from-port="2" to-layer="4551" to-port="0" />
		<edge from-layer="4547" from-port="2" to-layer="4582" to-port="0" />
		<edge from-layer="4548" from-port="0" to-layer="4551" to-port="1" />
		<edge from-layer="4549" from-port="0" to-layer="4551" to-port="2" />
		<edge from-layer="4550" from-port="0" to-layer="4551" to-port="3" />
		<edge from-layer="4551" from-port="5" to-layer="4553" to-port="0" />
		<edge from-layer="4552" from-port="0" to-layer="4553" to-port="1" />
		<edge from-layer="4553" from-port="2" to-layer="4555" to-port="0" />
		<edge from-layer="4554" from-port="0" to-layer="4555" to-port="1" />
		<edge from-layer="4555" from-port="2" to-layer="4556" to-port="0" />
		<edge from-layer="4555" from-port="2" to-layer="4560" to-port="0" />
		<edge from-layer="4555" from-port="2" to-layer="4566" to-port="0" />
		<edge from-layer="4556" from-port="2" to-layer="4569" to-port="0" />
		<edge from-layer="4557" from-port="0" to-layer="4560" to-port="1" />
		<edge from-layer="4558" from-port="0" to-layer="4560" to-port="2" />
		<edge from-layer="4559" from-port="0" to-layer="4560" to-port="3" />
		<edge from-layer="4560" from-port="5" to-layer="4562" to-port="0" />
		<edge from-layer="4561" from-port="0" to-layer="4562" to-port="1" />
		<edge from-layer="4562" from-port="2" to-layer="4567" to-port="0" />
		<edge from-layer="4563" from-port="0" to-layer="4566" to-port="1" />
		<edge from-layer="4564" from-port="0" to-layer="4566" to-port="2" />
		<edge from-layer="4565" from-port="0" to-layer="4566" to-port="3" />
		<edge from-layer="4566" from-port="5" to-layer="4567" to-port="1" />
		<edge from-layer="4567" from-port="2" to-layer="4568" to-port="0" />
		<edge from-layer="4568" from-port="2" to-layer="4569" to-port="1" />
		<edge from-layer="4569" from-port="2" to-layer="4620" to-port="0" />
		<edge from-layer="4570" from-port="0" to-layer="4575" to-port="0" />
		<edge from-layer="4571" from-port="0" to-layer="4574" to-port="1" />
		<edge from-layer="4572" from-port="0" to-layer="4574" to-port="2" />
		<edge from-layer="4573" from-port="0" to-layer="4574" to-port="3" />
		<edge from-layer="4574" from-port="4" to-layer="4575" to-port="1" />
		<edge from-layer="4575" from-port="2" to-layer="4576" to-port="0" />
		<edge from-layer="4576" from-port="1" to-layer="4578" to-port="0" />
		<edge from-layer="4577" from-port="0" to-layer="4578" to-port="2" />
		<edge from-layer="4578" from-port="3" to-layer="4601" to-port="0" />
		<edge from-layer="4579" from-port="0" to-layer="4582" to-port="1" />
		<edge from-layer="4580" from-port="0" to-layer="4582" to-port="2" />
		<edge from-layer="4581" from-port="0" to-layer="4582" to-port="3" />
		<edge from-layer="4582" from-port="5" to-layer="4584" to-port="0" />
		<edge from-layer="4583" from-port="0" to-layer="4584" to-port="1" />
		<edge from-layer="4584" from-port="2" to-layer="4586" to-port="0" />
		<edge from-layer="4585" from-port="0" to-layer="4586" to-port="1" />
		<edge from-layer="4586" from-port="2" to-layer="4591" to-port="0" />
		<edge from-layer="4586" from-port="2" to-layer="4587" to-port="0" />
		<edge from-layer="4586" from-port="2" to-layer="4597" to-port="0" />
		<edge from-layer="4587" from-port="2" to-layer="4600" to-port="0" />
		<edge from-layer="4588" from-port="0" to-layer="4591" to-port="1" />
		<edge from-layer="4589" from-port="0" to-layer="4591" to-port="2" />
		<edge from-layer="4590" from-port="0" to-layer="4591" to-port="3" />
		<edge from-layer="4591" from-port="5" to-layer="4593" to-port="0" />
		<edge from-layer="4592" from-port="0" to-layer="4593" to-port="1" />
		<edge from-layer="4593" from-port="2" to-layer="4598" to-port="0" />
		<edge from-layer="4594" from-port="0" to-layer="4597" to-port="1" />
		<edge from-layer="4595" from-port="0" to-layer="4597" to-port="2" />
		<edge from-layer="4596" from-port="0" to-layer="4597" to-port="3" />
		<edge from-layer="4597" from-port="5" to-layer="4598" to-port="1" />
		<edge from-layer="4598" from-port="2" to-layer="4599" to-port="0" />
		<edge from-layer="4599" from-port="2" to-layer="4600" to-port="1" />
		<edge from-layer="4600" from-port="2" to-layer="4601" to-port="1" />
		<edge from-layer="4601" from-port="2" to-layer="4895" to-port="0" />
		<edge from-layer="4601" from-port="2" to-layer="4620" to-port="1" />
		<edge from-layer="4602" from-port="0" to-layer="4607" to-port="0" />
		<edge from-layer="4603" from-port="0" to-layer="4606" to-port="1" />
		<edge from-layer="4604" from-port="0" to-layer="4606" to-port="2" />
		<edge from-layer="4605" from-port="0" to-layer="4606" to-port="3" />
		<edge from-layer="4606" from-port="4" to-layer="4607" to-port="1" />
		<edge from-layer="4607" from-port="2" to-layer="4608" to-port="0" />
		<edge from-layer="4608" from-port="1" to-layer="4610" to-port="0" />
		<edge from-layer="4609" from-port="0" to-layer="4610" to-port="2" />
		<edge from-layer="4610" from-port="3" to-layer="4619" to-port="0" />
		<edge from-layer="4611" from-port="0" to-layer="4614" to-port="1" />
		<edge from-layer="4612" from-port="0" to-layer="4614" to-port="2" />
		<edge from-layer="4613" from-port="0" to-layer="4614" to-port="3" />
		<edge from-layer="4614" from-port="5" to-layer="4616" to-port="0" />
		<edge from-layer="4615" from-port="0" to-layer="4616" to-port="1" />
		<edge from-layer="4616" from-port="2" to-layer="4618" to-port="0" />
		<edge from-layer="4617" from-port="0" to-layer="4618" to-port="1" />
		<edge from-layer="4618" from-port="2" to-layer="4619" to-port="1" />
		<edge from-layer="4619" from-port="2" to-layer="4894" to-port="0" />
		<edge from-layer="4619" from-port="2" to-layer="4620" to-port="2" />
		<edge from-layer="4620" from-port="4" to-layer="4622" to-port="0" />
		<edge from-layer="4621" from-port="0" to-layer="4622" to-port="1" />
		<edge from-layer="4622" from-port="2" to-layer="4624" to-port="0" />
		<edge from-layer="4623" from-port="0" to-layer="4624" to-port="1" />
		<edge from-layer="4624" from-port="2" to-layer="4635" to-port="0" />
		<edge from-layer="4625" from-port="0" to-layer="4626" to-port="0" />
		<edge from-layer="4626" from-port="1" to-layer="4629" to-port="0" />
		<edge from-layer="4627" from-port="0" to-layer="4628" to-port="0" />
		<edge from-layer="4628" from-port="1" to-layer="4629" to-port="1" />
		<edge from-layer="4629" from-port="2" to-layer="4631" to-port="0" />
		<edge from-layer="4630" from-port="0" to-layer="4631" to-port="1" />
		<edge from-layer="4631" from-port="2" to-layer="4633" to-port="0" />
		<edge from-layer="4632" from-port="0" to-layer="4633" to-port="1" />
		<edge from-layer="4633" from-port="2" to-layer="4634" to-port="0" />
		<edge from-layer="4634" from-port="1" to-layer="4635" to-port="1" />
		<edge from-layer="4635" from-port="2" to-layer="4636" to-port="1" />
		<edge from-layer="4636" from-port="2" to-layer="4640" to-port="0" />
		<edge from-layer="4636" from-port="2" to-layer="4647" to-port="0" />
		<edge from-layer="4636" from-port="2" to-layer="4674" to-port="0" />
		<edge from-layer="4637" from-port="0" to-layer="4648" to-port="0" />
		<edge from-layer="4638" from-port="0" to-layer="4646" to-port="0" />
		<edge from-layer="4639" from-port="0" to-layer="4640" to-port="1" />
		<edge from-layer="4640" from-port="2" to-layer="4642" to-port="0" />
		<edge from-layer="4641" from-port="0" to-layer="4642" to-port="1" />
		<edge from-layer="4642" from-port="2" to-layer="4644" to-port="0" />
		<edge from-layer="4643" from-port="0" to-layer="4644" to-port="1" />
		<edge from-layer="4644" from-port="2" to-layer="4645" to-port="0" />
		<edge from-layer="4645" from-port="1" to-layer="4646" to-port="1" />
		<edge from-layer="4646" from-port="2" to-layer="4647" to-port="1" />
		<edge from-layer="4647" from-port="2" to-layer="4648" to-port="1" />
		<edge from-layer="4648" from-port="2" to-layer="4659" to-port="0" />
		<edge from-layer="4649" from-port="0" to-layer="4650" to-port="0" />
		<edge from-layer="4650" from-port="1" to-layer="4653" to-port="0" />
		<edge from-layer="4651" from-port="0" to-layer="4652" to-port="0" />
		<edge from-layer="4652" from-port="1" to-layer="4653" to-port="1" />
		<edge from-layer="4653" from-port="2" to-layer="4655" to-port="0" />
		<edge from-layer="4654" from-port="0" to-layer="4655" to-port="1" />
		<edge from-layer="4655" from-port="2" to-layer="4657" to-port="0" />
		<edge from-layer="4656" from-port="0" to-layer="4657" to-port="1" />
		<edge from-layer="4657" from-port="2" to-layer="4658" to-port="0" />
		<edge from-layer="4658" from-port="1" to-layer="4659" to-port="1" />
		<edge from-layer="4659" from-port="2" to-layer="4660" to-port="0" />
		<edge from-layer="4660" from-port="3" to-layer="4661" to-port="0" />
		<edge from-layer="4660" from-port="4" to-layer="4662" to-port="0" />
		<edge from-layer="4661" from-port="1" to-layer="4662" to-port="1" />
		<edge from-layer="4662" from-port="2" to-layer="4673" to-port="0" />
		<edge from-layer="4663" from-port="0" to-layer="4664" to-port="0" />
		<edge from-layer="4664" from-port="1" to-layer="4667" to-port="0" />
		<edge from-layer="4665" from-port="0" to-layer="4666" to-port="0" />
		<edge from-layer="4666" from-port="1" to-layer="4667" to-port="1" />
		<edge from-layer="4667" from-port="2" to-layer="4669" to-port="0" />
		<edge from-layer="4668" from-port="0" to-layer="4669" to-port="1" />
		<edge from-layer="4669" from-port="2" to-layer="4671" to-port="0" />
		<edge from-layer="4670" from-port="0" to-layer="4671" to-port="1" />
		<edge from-layer="4671" from-port="2" to-layer="4672" to-port="0" />
		<edge from-layer="4672" from-port="1" to-layer="4673" to-port="1" />
		<edge from-layer="4673" from-port="2" to-layer="4674" to-port="1" />
		<edge from-layer="4674" from-port="2" to-layer="4678" to-port="0" />
		<edge from-layer="4674" from-port="2" to-layer="4786" to-port="0" />
		<edge from-layer="4674" from-port="2" to-layer="4685" to-port="0" />
		<edge from-layer="4675" from-port="0" to-layer="4686" to-port="0" />
		<edge from-layer="4676" from-port="0" to-layer="4684" to-port="0" />
		<edge from-layer="4677" from-port="0" to-layer="4678" to-port="1" />
		<edge from-layer="4678" from-port="2" to-layer="4680" to-port="0" />
		<edge from-layer="4679" from-port="0" to-layer="4680" to-port="1" />
		<edge from-layer="4680" from-port="2" to-layer="4682" to-port="0" />
		<edge from-layer="4681" from-port="0" to-layer="4682" to-port="1" />
		<edge from-layer="4682" from-port="2" to-layer="4683" to-port="0" />
		<edge from-layer="4683" from-port="1" to-layer="4684" to-port="1" />
		<edge from-layer="4684" from-port="2" to-layer="4685" to-port="1" />
		<edge from-layer="4685" from-port="2" to-layer="4686" to-port="1" />
		<edge from-layer="4686" from-port="2" to-layer="4697" to-port="0" />
		<edge from-layer="4687" from-port="0" to-layer="4688" to-port="0" />
		<edge from-layer="4688" from-port="1" to-layer="4691" to-port="0" />
		<edge from-layer="4689" from-port="0" to-layer="4690" to-port="0" />
		<edge from-layer="4690" from-port="1" to-layer="4691" to-port="1" />
		<edge from-layer="4691" from-port="2" to-layer="4693" to-port="0" />
		<edge from-layer="4692" from-port="0" to-layer="4693" to-port="1" />
		<edge from-layer="4693" from-port="2" to-layer="4695" to-port="0" />
		<edge from-layer="4694" from-port="0" to-layer="4695" to-port="1" />
		<edge from-layer="4695" from-port="2" to-layer="4696" to-port="0" />
		<edge from-layer="4696" from-port="1" to-layer="4697" to-port="1" />
		<edge from-layer="4697" from-port="2" to-layer="4701" to-port="0" />
		<edge from-layer="4697" from-port="2" to-layer="4764" to-port="0" />
		<edge from-layer="4697" from-port="2" to-layer="4732" to-port="0" />
		<edge from-layer="4698" from-port="0" to-layer="4701" to-port="1" />
		<edge from-layer="4699" from-port="0" to-layer="4701" to-port="2" />
		<edge from-layer="4700" from-port="0" to-layer="4701" to-port="3" />
		<edge from-layer="4701" from-port="5" to-layer="4703" to-port="0" />
		<edge from-layer="4702" from-port="0" to-layer="4703" to-port="1" />
		<edge from-layer="4703" from-port="2" to-layer="4705" to-port="0" />
		<edge from-layer="4704" from-port="0" to-layer="4705" to-port="1" />
		<edge from-layer="4705" from-port="2" to-layer="4716" to-port="0" />
		<edge from-layer="4705" from-port="2" to-layer="4706" to-port="0" />
		<edge from-layer="4705" from-port="2" to-layer="4710" to-port="0" />
		<edge from-layer="4706" from-port="2" to-layer="4719" to-port="0" />
		<edge from-layer="4707" from-port="0" to-layer="4710" to-port="1" />
		<edge from-layer="4708" from-port="0" to-layer="4710" to-port="2" />
		<edge from-layer="4709" from-port="0" to-layer="4710" to-port="3" />
		<edge from-layer="4710" from-port="5" to-layer="4712" to-port="0" />
		<edge from-layer="4711" from-port="0" to-layer="4712" to-port="1" />
		<edge from-layer="4712" from-port="2" to-layer="4717" to-port="0" />
		<edge from-layer="4713" from-port="0" to-layer="4716" to-port="1" />
		<edge from-layer="4714" from-port="0" to-layer="4716" to-port="2" />
		<edge from-layer="4715" from-port="0" to-layer="4716" to-port="3" />
		<edge from-layer="4716" from-port="5" to-layer="4717" to-port="1" />
		<edge from-layer="4717" from-port="2" to-layer="4718" to-port="0" />
		<edge from-layer="4718" from-port="2" to-layer="4719" to-port="1" />
		<edge from-layer="4719" from-port="2" to-layer="4770" to-port="0" />
		<edge from-layer="4720" from-port="0" to-layer="4725" to-port="0" />
		<edge from-layer="4721" from-port="0" to-layer="4724" to-port="1" />
		<edge from-layer="4722" from-port="0" to-layer="4724" to-port="2" />
		<edge from-layer="4723" from-port="0" to-layer="4724" to-port="3" />
		<edge from-layer="4724" from-port="4" to-layer="4725" to-port="1" />
		<edge from-layer="4725" from-port="2" to-layer="4726" to-port="0" />
		<edge from-layer="4726" from-port="1" to-layer="4728" to-port="0" />
		<edge from-layer="4727" from-port="0" to-layer="4728" to-port="2" />
		<edge from-layer="4728" from-port="3" to-layer="4751" to-port="0" />
		<edge from-layer="4729" from-port="0" to-layer="4732" to-port="1" />
		<edge from-layer="4730" from-port="0" to-layer="4732" to-port="2" />
		<edge from-layer="4731" from-port="0" to-layer="4732" to-port="3" />
		<edge from-layer="4732" from-port="5" to-layer="4734" to-port="0" />
		<edge from-layer="4733" from-port="0" to-layer="4734" to-port="1" />
		<edge from-layer="4734" from-port="2" to-layer="4736" to-port="0" />
		<edge from-layer="4735" from-port="0" to-layer="4736" to-port="1" />
		<edge from-layer="4736" from-port="2" to-layer="4747" to-port="0" />
		<edge from-layer="4736" from-port="2" to-layer="4737" to-port="0" />
		<edge from-layer="4736" from-port="2" to-layer="4741" to-port="0" />
		<edge from-layer="4737" from-port="2" to-layer="4750" to-port="0" />
		<edge from-layer="4738" from-port="0" to-layer="4741" to-port="1" />
		<edge from-layer="4739" from-port="0" to-layer="4741" to-port="2" />
		<edge from-layer="4740" from-port="0" to-layer="4741" to-port="3" />
		<edge from-layer="4741" from-port="5" to-layer="4743" to-port="0" />
		<edge from-layer="4742" from-port="0" to-layer="4743" to-port="1" />
		<edge from-layer="4743" from-port="2" to-layer="4748" to-port="0" />
		<edge from-layer="4744" from-port="0" to-layer="4747" to-port="1" />
		<edge from-layer="4745" from-port="0" to-layer="4747" to-port="2" />
		<edge from-layer="4746" from-port="0" to-layer="4747" to-port="3" />
		<edge from-layer="4747" from-port="5" to-layer="4748" to-port="1" />
		<edge from-layer="4748" from-port="2" to-layer="4749" to-port="0" />
		<edge from-layer="4749" from-port="2" to-layer="4750" to-port="1" />
		<edge from-layer="4750" from-port="2" to-layer="4751" to-port="1" />
		<edge from-layer="4751" from-port="2" to-layer="4891" to-port="0" />
		<edge from-layer="4751" from-port="2" to-layer="4770" to-port="1" />
		<edge from-layer="4752" from-port="0" to-layer="4757" to-port="0" />
		<edge from-layer="4753" from-port="0" to-layer="4756" to-port="1" />
		<edge from-layer="4754" from-port="0" to-layer="4756" to-port="2" />
		<edge from-layer="4755" from-port="0" to-layer="4756" to-port="3" />
		<edge from-layer="4756" from-port="4" to-layer="4757" to-port="1" />
		<edge from-layer="4757" from-port="2" to-layer="4758" to-port="0" />
		<edge from-layer="4758" from-port="1" to-layer="4760" to-port="0" />
		<edge from-layer="4759" from-port="0" to-layer="4760" to-port="2" />
		<edge from-layer="4760" from-port="3" to-layer="4769" to-port="0" />
		<edge from-layer="4761" from-port="0" to-layer="4764" to-port="1" />
		<edge from-layer="4762" from-port="0" to-layer="4764" to-port="2" />
		<edge from-layer="4763" from-port="0" to-layer="4764" to-port="3" />
		<edge from-layer="4764" from-port="5" to-layer="4766" to-port="0" />
		<edge from-layer="4765" from-port="0" to-layer="4766" to-port="1" />
		<edge from-layer="4766" from-port="2" to-layer="4768" to-port="0" />
		<edge from-layer="4767" from-port="0" to-layer="4768" to-port="1" />
		<edge from-layer="4768" from-port="2" to-layer="4769" to-port="1" />
		<edge from-layer="4769" from-port="2" to-layer="4770" to-port="2" />
		<edge from-layer="4769" from-port="2" to-layer="4890" to-port="0" />
		<edge from-layer="4770" from-port="4" to-layer="4772" to-port="0" />
		<edge from-layer="4771" from-port="0" to-layer="4772" to-port="1" />
		<edge from-layer="4772" from-port="2" to-layer="4774" to-port="0" />
		<edge from-layer="4773" from-port="0" to-layer="4774" to-port="1" />
		<edge from-layer="4774" from-port="2" to-layer="4785" to-port="0" />
		<edge from-layer="4775" from-port="0" to-layer="4776" to-port="0" />
		<edge from-layer="4776" from-port="1" to-layer="4779" to-port="0" />
		<edge from-layer="4777" from-port="0" to-layer="4778" to-port="0" />
		<edge from-layer="4778" from-port="1" to-layer="4779" to-port="1" />
		<edge from-layer="4779" from-port="2" to-layer="4781" to-port="0" />
		<edge from-layer="4780" from-port="0" to-layer="4781" to-port="1" />
		<edge from-layer="4781" from-port="2" to-layer="4783" to-port="0" />
		<edge from-layer="4782" from-port="0" to-layer="4783" to-port="1" />
		<edge from-layer="4783" from-port="2" to-layer="4784" to-port="0" />
		<edge from-layer="4784" from-port="1" to-layer="4785" to-port="1" />
		<edge from-layer="4785" from-port="2" to-layer="4786" to-port="1" />
		<edge from-layer="4786" from-port="2" to-layer="4790" to-port="0" />
		<edge from-layer="4786" from-port="2" to-layer="4824" to-port="0" />
		<edge from-layer="4786" from-port="2" to-layer="4797" to-port="0" />
		<edge from-layer="4787" from-port="0" to-layer="4798" to-port="0" />
		<edge from-layer="4788" from-port="0" to-layer="4796" to-port="0" />
		<edge from-layer="4789" from-port="0" to-layer="4790" to-port="1" />
		<edge from-layer="4790" from-port="2" to-layer="4792" to-port="0" />
		<edge from-layer="4791" from-port="0" to-layer="4792" to-port="1" />
		<edge from-layer="4792" from-port="2" to-layer="4794" to-port="0" />
		<edge from-layer="4793" from-port="0" to-layer="4794" to-port="1" />
		<edge from-layer="4794" from-port="2" to-layer="4795" to-port="0" />
		<edge from-layer="4795" from-port="1" to-layer="4796" to-port="1" />
		<edge from-layer="4796" from-port="2" to-layer="4797" to-port="1" />
		<edge from-layer="4797" from-port="2" to-layer="4798" to-port="1" />
		<edge from-layer="4798" from-port="2" to-layer="4809" to-port="0" />
		<edge from-layer="4799" from-port="0" to-layer="4800" to-port="0" />
		<edge from-layer="4800" from-port="1" to-layer="4803" to-port="0" />
		<edge from-layer="4801" from-port="0" to-layer="4802" to-port="0" />
		<edge from-layer="4802" from-port="1" to-layer="4803" to-port="1" />
		<edge from-layer="4803" from-port="2" to-layer="4805" to-port="0" />
		<edge from-layer="4804" from-port="0" to-layer="4805" to-port="1" />
		<edge from-layer="4805" from-port="2" to-layer="4807" to-port="0" />
		<edge from-layer="4806" from-port="0" to-layer="4807" to-port="1" />
		<edge from-layer="4807" from-port="2" to-layer="4808" to-port="0" />
		<edge from-layer="4808" from-port="1" to-layer="4809" to-port="1" />
		<edge from-layer="4809" from-port="2" to-layer="4810" to-port="0" />
		<edge from-layer="4810" from-port="3" to-layer="4811" to-port="0" />
		<edge from-layer="4810" from-port="4" to-layer="4812" to-port="0" />
		<edge from-layer="4811" from-port="1" to-layer="4812" to-port="1" />
		<edge from-layer="4812" from-port="2" to-layer="4823" to-port="0" />
		<edge from-layer="4813" from-port="0" to-layer="4814" to-port="0" />
		<edge from-layer="4814" from-port="1" to-layer="4817" to-port="0" />
		<edge from-layer="4815" from-port="0" to-layer="4816" to-port="0" />
		<edge from-layer="4816" from-port="1" to-layer="4817" to-port="1" />
		<edge from-layer="4817" from-port="2" to-layer="4819" to-port="0" />
		<edge from-layer="4818" from-port="0" to-layer="4819" to-port="1" />
		<edge from-layer="4819" from-port="2" to-layer="4821" to-port="0" />
		<edge from-layer="4820" from-port="0" to-layer="4821" to-port="1" />
		<edge from-layer="4821" from-port="2" to-layer="4822" to-port="0" />
		<edge from-layer="4822" from-port="1" to-layer="4823" to-port="1" />
		<edge from-layer="4823" from-port="2" to-layer="4824" to-port="1" />
		<edge from-layer="4824" from-port="2" to-layer="4827" to-port="0" />
		<edge from-layer="4824" from-port="2" to-layer="4979" to-port="0" />
		<edge from-layer="4824" from-port="2" to-layer="4834" to-port="0" />
		<edge from-layer="4825" from-port="0" to-layer="4833" to-port="0" />
		<edge from-layer="4826" from-port="0" to-layer="4827" to-port="1" />
		<edge from-layer="4827" from-port="2" to-layer="4829" to-port="0" />
		<edge from-layer="4828" from-port="0" to-layer="4829" to-port="1" />
		<edge from-layer="4829" from-port="2" to-layer="4831" to-port="0" />
		<edge from-layer="4830" from-port="0" to-layer="4831" to-port="1" />
		<edge from-layer="4831" from-port="2" to-layer="4832" to-port="0" />
		<edge from-layer="4832" from-port="1" to-layer="4833" to-port="1" />
		<edge from-layer="4833" from-port="2" to-layer="4834" to-port="1" />
		<edge from-layer="4834" from-port="2" to-layer="4835" to-port="1" />
		<edge from-layer="4835" from-port="2" to-layer="4846" to-port="0" />
		<edge from-layer="4836" from-port="0" to-layer="4837" to-port="0" />
		<edge from-layer="4837" from-port="1" to-layer="4840" to-port="0" />
		<edge from-layer="4838" from-port="0" to-layer="4839" to-port="0" />
		<edge from-layer="4839" from-port="1" to-layer="4840" to-port="1" />
		<edge from-layer="4840" from-port="2" to-layer="4842" to-port="0" />
		<edge from-layer="4841" from-port="0" to-layer="4842" to-port="1" />
		<edge from-layer="4842" from-port="2" to-layer="4844" to-port="0" />
		<edge from-layer="4843" from-port="0" to-layer="4844" to-port="1" />
		<edge from-layer="4844" from-port="2" to-layer="4845" to-port="0" />
		<edge from-layer="4845" from-port="1" to-layer="4846" to-port="1" />
		<edge from-layer="4846" from-port="2" to-layer="4944" to-port="0" />
		<edge from-layer="4846" from-port="2" to-layer="4869" to-port="0" />
		<edge from-layer="4846" from-port="2" to-layer="4850" to-port="0" />
		<edge from-layer="4847" from-port="0" to-layer="4850" to-port="1" />
		<edge from-layer="4848" from-port="0" to-layer="4850" to-port="2" />
		<edge from-layer="4849" from-port="0" to-layer="4850" to-port="3" />
		<edge from-layer="4850" from-port="5" to-layer="4852" to-port="0" />
		<edge from-layer="4851" from-port="0" to-layer="4852" to-port="1" />
		<edge from-layer="4852" from-port="2" to-layer="4854" to-port="0" />
		<edge from-layer="4853" from-port="0" to-layer="4854" to-port="1" />
		<edge from-layer="4854" from-port="2" to-layer="4855" to-port="1" />
		<edge from-layer="4855" from-port="2" to-layer="4963" to-port="2" />
		<edge from-layer="4855" from-port="2" to-layer="4856" to-port="0" />
		<edge from-layer="4857" from-port="0" to-layer="4862" to-port="0" />
		<edge from-layer="4858" from-port="0" to-layer="4861" to-port="1" />
		<edge from-layer="4859" from-port="0" to-layer="4861" to-port="2" />
		<edge from-layer="4860" from-port="0" to-layer="4861" to-port="3" />
		<edge from-layer="4861" from-port="4" to-layer="4862" to-port="1" />
		<edge from-layer="4862" from-port="2" to-layer="4863" to-port="0" />
		<edge from-layer="4863" from-port="1" to-layer="4865" to-port="0" />
		<edge from-layer="4864" from-port="0" to-layer="4865" to-port="2" />
		<edge from-layer="4865" from-port="3" to-layer="4888" to-port="0" />
		<edge from-layer="4866" from-port="0" to-layer="4869" to-port="1" />
		<edge from-layer="4867" from-port="0" to-layer="4869" to-port="2" />
		<edge from-layer="4868" from-port="0" to-layer="4869" to-port="3" />
		<edge from-layer="4869" from-port="5" to-layer="4871" to-port="0" />
		<edge from-layer="4870" from-port="0" to-layer="4871" to-port="1" />
		<edge from-layer="4871" from-port="2" to-layer="4873" to-port="0" />
		<edge from-layer="4872" from-port="0" to-layer="4873" to-port="1" />
		<edge from-layer="4873" from-port="2" to-layer="4874" to-port="0" />
		<edge from-layer="4873" from-port="2" to-layer="4878" to-port="0" />
		<edge from-layer="4873" from-port="2" to-layer="4884" to-port="0" />
		<edge from-layer="4874" from-port="2" to-layer="4887" to-port="0" />
		<edge from-layer="4875" from-port="0" to-layer="4878" to-port="1" />
		<edge from-layer="4876" from-port="0" to-layer="4878" to-port="2" />
		<edge from-layer="4877" from-port="0" to-layer="4878" to-port="3" />
		<edge from-layer="4878" from-port="5" to-layer="4880" to-port="0" />
		<edge from-layer="4879" from-port="0" to-layer="4880" to-port="1" />
		<edge from-layer="4880" from-port="2" to-layer="4885" to-port="0" />
		<edge from-layer="4881" from-port="0" to-layer="4884" to-port="1" />
		<edge from-layer="4882" from-port="0" to-layer="4884" to-port="2" />
		<edge from-layer="4883" from-port="0" to-layer="4884" to-port="3" />
		<edge from-layer="4884" from-port="5" to-layer="4885" to-port="1" />
		<edge from-layer="4885" from-port="2" to-layer="4886" to-port="0" />
		<edge from-layer="4886" from-port="2" to-layer="4887" to-port="1" />
		<edge from-layer="4887" from-port="2" to-layer="4888" to-port="1" />
		<edge from-layer="4888" from-port="2" to-layer="4963" to-port="1" />
		<edge from-layer="4888" from-port="2" to-layer="4889" to-port="0" />
		<edge from-layer="4940" from-port="0" to-layer="5028" to-port="0" />
		<edge from-layer="4941" from-port="0" to-layer="4944" to-port="1" />
		<edge from-layer="4942" from-port="0" to-layer="4944" to-port="2" />
		<edge from-layer="4943" from-port="0" to-layer="4944" to-port="3" />
		<edge from-layer="4944" from-port="5" to-layer="4946" to-port="0" />
		<edge from-layer="4945" from-port="0" to-layer="4946" to-port="1" />
		<edge from-layer="4946" from-port="2" to-layer="4948" to-port="0" />
		<edge from-layer="4947" from-port="0" to-layer="4948" to-port="1" />
		<edge from-layer="4948" from-port="2" to-layer="4949" to-port="0" />
		<edge from-layer="4948" from-port="2" to-layer="4959" to-port="0" />
		<edge from-layer="4948" from-port="2" to-layer="4953" to-port="0" />
		<edge from-layer="4949" from-port="2" to-layer="4962" to-port="0" />
		<edge from-layer="4950" from-port="0" to-layer="4953" to-port="1" />
		<edge from-layer="4951" from-port="0" to-layer="4953" to-port="2" />
		<edge from-layer="4952" from-port="0" to-layer="4953" to-port="3" />
		<edge from-layer="4953" from-port="5" to-layer="4955" to-port="0" />
		<edge from-layer="4954" from-port="0" to-layer="4955" to-port="1" />
		<edge from-layer="4955" from-port="2" to-layer="4960" to-port="0" />
		<edge from-layer="4956" from-port="0" to-layer="4959" to-port="1" />
		<edge from-layer="4957" from-port="0" to-layer="4959" to-port="2" />
		<edge from-layer="4958" from-port="0" to-layer="4959" to-port="3" />
		<edge from-layer="4959" from-port="5" to-layer="4960" to-port="1" />
		<edge from-layer="4960" from-port="2" to-layer="4961" to-port="0" />
		<edge from-layer="4961" from-port="2" to-layer="4962" to-port="1" />
		<edge from-layer="4962" from-port="2" to-layer="4963" to-port="0" />
		<edge from-layer="4963" from-port="4" to-layer="4965" to-port="0" />
		<edge from-layer="4964" from-port="0" to-layer="4965" to-port="1" />
		<edge from-layer="4965" from-port="2" to-layer="4967" to-port="0" />
		<edge from-layer="4966" from-port="0" to-layer="4967" to-port="1" />
		<edge from-layer="4967" from-port="2" to-layer="4978" to-port="0" />
		<edge from-layer="4968" from-port="0" to-layer="4969" to-port="0" />
		<edge from-layer="4969" from-port="1" to-layer="4972" to-port="0" />
		<edge from-layer="4970" from-port="0" to-layer="4971" to-port="0" />
		<edge from-layer="4971" from-port="1" to-layer="4972" to-port="1" />
		<edge from-layer="4972" from-port="2" to-layer="4974" to-port="0" />
		<edge from-layer="4973" from-port="0" to-layer="4974" to-port="1" />
		<edge from-layer="4974" from-port="2" to-layer="4976" to-port="0" />
		<edge from-layer="4975" from-port="0" to-layer="4976" to-port="1" />
		<edge from-layer="4976" from-port="2" to-layer="4977" to-port="0" />
		<edge from-layer="4977" from-port="1" to-layer="4978" to-port="1" />
		<edge from-layer="4978" from-port="2" to-layer="4979" to-port="1" />
		<edge from-layer="4979" from-port="2" to-layer="4983" to-port="0" />
		<edge from-layer="4979" from-port="2" to-layer="5017" to-port="0" />
		<edge from-layer="4979" from-port="2" to-layer="4990" to-port="0" />
		<edge from-layer="4980" from-port="0" to-layer="4991" to-port="0" />
		<edge from-layer="4981" from-port="0" to-layer="4989" to-port="0" />
		<edge from-layer="4982" from-port="0" to-layer="4983" to-port="1" />
		<edge from-layer="4983" from-port="2" to-layer="4985" to-port="0" />
		<edge from-layer="4984" from-port="0" to-layer="4985" to-port="1" />
		<edge from-layer="4985" from-port="2" to-layer="4987" to-port="0" />
		<edge from-layer="4986" from-port="0" to-layer="4987" to-port="1" />
		<edge from-layer="4987" from-port="2" to-layer="4988" to-port="0" />
		<edge from-layer="4988" from-port="1" to-layer="4989" to-port="1" />
		<edge from-layer="4989" from-port="2" to-layer="4990" to-port="1" />
		<edge from-layer="4990" from-port="2" to-layer="4991" to-port="1" />
		<edge from-layer="4991" from-port="2" to-layer="5002" to-port="0" />
		<edge from-layer="4992" from-port="0" to-layer="4993" to-port="0" />
		<edge from-layer="4993" from-port="1" to-layer="4996" to-port="0" />
		<edge from-layer="4994" from-port="0" to-layer="4995" to-port="0" />
		<edge from-layer="4995" from-port="1" to-layer="4996" to-port="1" />
		<edge from-layer="4996" from-port="2" to-layer="4998" to-port="0" />
		<edge from-layer="4997" from-port="0" to-layer="4998" to-port="1" />
		<edge from-layer="4998" from-port="2" to-layer="5000" to-port="0" />
		<edge from-layer="4999" from-port="0" to-layer="5000" to-port="1" />
		<edge from-layer="5000" from-port="2" to-layer="5001" to-port="0" />
		<edge from-layer="5001" from-port="1" to-layer="5002" to-port="1" />
		<edge from-layer="5002" from-port="2" to-layer="5003" to-port="0" />
		<edge from-layer="5003" from-port="3" to-layer="5004" to-port="0" />
		<edge from-layer="5003" from-port="4" to-layer="5005" to-port="0" />
		<edge from-layer="5004" from-port="1" to-layer="5005" to-port="1" />
		<edge from-layer="5005" from-port="2" to-layer="5016" to-port="0" />
		<edge from-layer="5006" from-port="0" to-layer="5007" to-port="0" />
		<edge from-layer="5007" from-port="1" to-layer="5010" to-port="0" />
		<edge from-layer="5008" from-port="0" to-layer="5009" to-port="0" />
		<edge from-layer="5009" from-port="1" to-layer="5010" to-port="1" />
		<edge from-layer="5010" from-port="2" to-layer="5012" to-port="0" />
		<edge from-layer="5011" from-port="0" to-layer="5012" to-port="1" />
		<edge from-layer="5012" from-port="2" to-layer="5014" to-port="0" />
		<edge from-layer="5013" from-port="0" to-layer="5014" to-port="1" />
		<edge from-layer="5014" from-port="2" to-layer="5015" to-port="0" />
		<edge from-layer="5015" from-port="1" to-layer="5016" to-port="1" />
		<edge from-layer="5016" from-port="2" to-layer="5017" to-port="1" />
		<edge from-layer="5017" from-port="2" to-layer="5027" to-port="0" />
		<edge from-layer="5017" from-port="2" to-layer="5020" to-port="0" />
		<edge from-layer="5018" from-port="0" to-layer="5026" to-port="0" />
		<edge from-layer="5019" from-port="0" to-layer="5020" to-port="1" />
		<edge from-layer="5020" from-port="2" to-layer="5022" to-port="0" />
		<edge from-layer="5021" from-port="0" to-layer="5022" to-port="1" />
		<edge from-layer="5022" from-port="2" to-layer="5024" to-port="0" />
		<edge from-layer="5023" from-port="0" to-layer="5024" to-port="1" />
		<edge from-layer="5024" from-port="2" to-layer="5025" to-port="0" />
		<edge from-layer="5025" from-port="1" to-layer="5026" to-port="1" />
		<edge from-layer="5026" from-port="2" to-layer="5027" to-port="1" />
		<edge from-layer="5027" from-port="2" to-layer="5028" to-port="1" />
		<edge from-layer="5028" from-port="2" to-layer="5037" to-port="0" />
		<edge from-layer="5029" from-port="0" to-layer="5030" to-port="0" />
		<edge from-layer="5030" from-port="1" to-layer="5033" to-port="0" />
		<edge from-layer="5031" from-port="0" to-layer="5032" to-port="0" />
		<edge from-layer="5032" from-port="1" to-layer="5033" to-port="1" />
		<edge from-layer="5033" from-port="2" to-layer="5035" to-port="0" />
		<edge from-layer="5034" from-port="0" to-layer="5035" to-port="1" />
		<edge from-layer="5035" from-port="2" to-layer="5036" to-port="0" />
		<edge from-layer="5036" from-port="1" to-layer="5037" to-port="1" />
		<edge from-layer="5037" from-port="2" to-layer="5038" to-port="0" />
	</edges>
	<rt_info>
		<Runtime_version value="2024.5.0-17285-ea5c1dcfdf9-releases/2024/5" />
		<conversion_parameters>
			<framework value="pytorch" />
			<is_python_object value="True" />
		</conversion_parameters>
		<nncf>
			<friendly_names_were_updated value="True" />
			<weight_compression>
				<advanced_parameters value="{'statistics_path': None, 'awq_params': {'subset_size': 32, 'percent_to_apply': 0.002, 'alpha_min': 0.0, 'alpha_max': 1.0, 'steps': 100}, 'scale_estimation_params': {'subset_size': 64, 'initial_steps': 5, 'scale_steps': 5, 'weight_penalty': -1.0}, 'gptq_params': {'damp_percent': 0.1, 'block_size': 128, 'subset_size': 128}, 'lora_correction_params': {'adapter_rank': 8, 'num_iterations': 3, 'apply_regularization': True, 'subset_size': 128, 'use_int8_adapters': True}}" />
				<all_layers value="False" />
				<awq value="False" />
				<backup_mode value="int8_asym" />
				<gptq value="False" />
				<group_size value="128" />
				<ignored_scope value="[]" />
				<lora_correction value="False" />
				<mode value="int4_asym" />
				<ratio value="1.0" />
				<scale_estimation value="False" />
				<sensitivity_metric value="weight_quantization_error" />
			</weight_compression>
		</nncf>
		<optimum>
			<optimum_intel_version value="1.21.0.dev0+d357376" />
			<optimum_version value="1.23.3" />
			<pytorch_version value="2.5.1" />
			<transformers_version value="4.46.3" />
		</optimum>
	</rt_info>
</net>
